model_checkpoints/lenet_model.pth (torch, 256176 bytes, 10 tensors)

conv1.weight f4 [6, 3, 5, 5]
000000 d1 2f 7b bd 84 bd 2c be 37 a5 56 be 24 b4 23 be
       -0.0613249 -0.1686917 -0.20961462 -0.15986687
000010 a4 bd 9c bd 56 df 3b be df 66 d7 bd 53 59 a6 bc
       -0.076533586 -0.18346915 -0.10517668 -0.020306265
000020 d5 54 f8 3b 4c 2e 24 bd 56 1d 31 be 71 8a 6e bd
       0.007578472 -0.040083215 -0.17296347 -0.058237497
000030 6d 02 4f be 97 a4 30 be 52 12 4d be f9 4f d1 bc
       -0.20215769 -0.17250286 -0.2002652 -0.02555083
000040 29 c4 9b bd 4b 13 2d be c9 1a 5b bd 9d 21 46 bd
       -0.07605774 -0.16901891 -0.05349234 -0.0483719
000050 93 be fb bd 41 93 50 be 32 10 e3 bd ce bd 77 bd
       -0.122922085 -0.20368673 -0.110870734 -0.060483746
000060 0d 89 15 be 47 6e 04 be 9e ba a7 bd 6c 4d 32 be
       -0.14603062 -0.12932692 -0.08189891 -0.17412347
000070 7a 7e 0e 3a be 81 cf 3c c8 f5 71 bd d9 4e 13 be
       0.00054357166 0.02533042 -0.059072286 -0.14385547
000080 9d 86 fd bd e3 7e 3b be dc 87 05 be 17 f5 3e be
       -0.12379191 -0.18310122 -0.13040107 -0.18648182
000090 64 ef 18 3a 79 3a cd bd 2f 9e 2d be 81 34 2a bc
       0.0005834012 -0.100209184 -0.16954874 -0.0103884945
0000a0 2c a7 21 be 1d 7f d3 bd 28 6a c1 3c 10 25 1d be
       -0.15786427 -0.10326979 0.02361019 -0.1534617
0000b0 a5 a0 19 be 3c bd c3 3b 03 e9 57 ba da f4 3d be
       -0.15002687 0.005973486 -0.00082363206 -0.18550435
0000c0 5d 54 2b be 42 eb 48 bd 90 9e 30 3d ca 15 d1 3d
       -0.16731401 -0.049052484 0.043119967 0.10209234
0000d0 5f 45 46 bd ca 63 fb bc d9 e5 79 3b 38 c0 7b 3c
       -0.048406 -0.030687232 0.0038131385 0.015365653
0000e0 07 8c 73 3c 32 00 05 3e 04 34 00 3e 57 4d 4a bd
       0.014864928 0.12988356 0.12519842 -0.049390163
0000f0 d8 c0 5e bd 93 1c 88 3d 6c 95 bc bc c4 7e de 3d
       -0.05438313 0.06646075 -0.023020469 0.108640224
000100 e0 c4 ce 3d c9 ed a9 bc 16 1d 97 bd 5b 1c ab 3d
       0.10096145 -0.020743268 -0.073785946 0.08355018
000110 88 35 9c 3d 01 98 23 3d c2 17 15 3d 61 22 b9 3d
       0.07627398 0.039939884 0.03639961 0.090397604
000120 4b c5 d5 3c c8 4d f9 3d ed 3a c1 3d 0a 6a 4b bd
       0.026095053 0.12173039 0.09435067 -0.049661674
000130 ab bc ac 3d 2d 67 92 bd cf 5d 14 bd b0 3f 0c 3d
       0.08434423 -0.071485855 -0.036222275 0.034240425
000140 da 55 66 3d f8 d7 37 3c 6e 45 f6 bc e3 b7 4c 3c
       0.05623422 0.011220925 -0.030062404 0.012495014
000150 e4 fb a0 3d 3f 29 a6 bc 0b fc b8 3d 40 d1 ea 3d
       0.07860544 -0.02028334 0.090324484 0.114656925
000160 af 3d b7 3c 57 5d ad 3d 4f c0 70 3d ae 3a 23 bd
       0.02236828 0.08465069 0.05877715 -0.039850883
000170 a2 b8 35 bc 90 51 94 3d cb 61 8b 3d 28 63 86 3d
       -0.011091383 0.07242119 0.06805762 0.06561881
000180 1e d9 b3 bd 76 1d ac bd 3a 59 91 bd 27 ab 12 3e
       -0.08781646 -0.08404057 -0.07097097 0.14323102
000190 78 4a 74 bd d9 d7 23 3d 67 b1 51 3c 62 ee 16 be
       -0.05964133 0.04000077 0.012798644 -0.14739373
0001a0 2a 50 7f 3d 0a 9c b4 3c d9 b2 16 be 87 79 b9 bd
       0.06233231 0.022047061 -0.14716662 -0.090563826
0001b0 f0 a2 3d 3d 99 0f d1 3b d8 52 2c be a9 c8 25 3b
       0.046297967 0.006380033 -0.16828477 0.0025296605
0001c0 0f 9b 22 be 86 03 16 bd de 4c da bd 28 71 90 bd
       -0.15879463 -0.036624454 -0.106591925 -0.07052833
0001d0 ec 77 8b b9 b2 4f 0a be 0f 3f e0 3c 61 07 c0 bd
       -0.00026601495 -0.13506964 0.027373819 -0.093764074
0001e0 85 2c b7 3d 2d 24 04 3d 2f c1 4a 3c 34 cc ce 3c
       0.08944038 0.032261062 0.01237516 0.025243856
0001f0 bf 24 ad bd 8a 2f 4f bd fc 3d 0b be b7 36 f0 bd
       -0.084542744 -0.050582446 -0.13597864 -0.11729186
000200 e7 95 22 be e2 bd 34 be 64 31 dc bd 1f 6a 60 bd
       -0.15877496 -0.1765056 -0.10751608 -0.054788705
000210 a9 14 e5 bd 30 ae 2a be 1a e2 be bd 36 39 ac bd
       -0.11185581 -0.1666801 -0.09320469 -0.084093496
000220 78 b0 23 be ee c5 d3 bb 75 df 04 bd bd a7 6b 3d
       -0.15985286 -0.006462804 -0.032439668 0.057533015
000230 cf 70 d6 bd c2 aa 07 be 86 4a c6 bd e5 14 09 be
       -0.10470735 -0.13248733 -0.09682183 -0.13386877
000240 1d 76 03 3d 95 92 90 bd 5a 58 fb bd 1b 71 b0 3c
       0.032095063 -0.07059208 -0.12272711 0.021538308
000250 94 16 7d 3d 10 14 e5 3c b1 60 e2 3d 70 05 c2 bc
       0.06178911 0.027963668 0.11053599 -0.023684233
000260 3c 0f 7b bd 9c 4c 6c 3c e6 af 9c bc 2e ef b6 bc
       -0.061293826 0.014422562 -0.019126844 -0.022330847
000270 c6 5d e9 3d 33 3e f9 3d e6 9f 55 bc b9 3b e2 bd
       0.11394839 0.12170067 -0.013038611 -0.110465474
000280 82 37 84 bd af b3 e8 3c 5b 5b f3 bc 39 5e c8 3d
       -0.064559 0.028405992 -0.029706648 0.097835965
000290 43 96 e3 3d 5b 1b ed 3d 1b 17 be 3d 98 42 af 3d
       0.111126445 0.11577483 0.09281751 0.085576236
0002a0 a7 99 80 bd f0 c1 fc 3d b2 aa 9c bd 21 5b eb 3d
       -0.06279307 0.12341678 -0.07649745 0.11491991
0002b0 aa 76 01 3e 78 56 51 bd ef 9d 0c 3b 06 0e bc 3d
       0.12642923 -0.051107854 0.002145644 0.09182362
0002c0 1d ae e1 bd 17 b1 04 3d ef 55 7c bd 5c b4 0c be
       -0.110195376 0.03239545 -0.06160539 -0.13740677
0002d0 50 77 98 bd e5 5e e9 bd 88 37 42 3d 40 a4 97 3d
       -0.07444632 -0.11395053 0.04741624 0.07404375
0002e0 6a 04 d2 bd fc 95 87 3c bf e1 6e 3d 1e cc 91 bd
       -0.10254748 0.01655101 0.058320757 -0.071190104
0002f0 fe 57 bc 3d 9e 5a e9 bd 6d 12 4d bd 55 a3 ba 3d
       0.09196471 -0.11394237 -0.0500664 0.09113184
000300 cd bf 1c bd a5 e5 ce 3c 06 f4 c1 bd 12 1e 9b bd
       -0.038268853 0.025255987 -0.09470372 -0.07574095
000310 c5 5c 27 bd af 3f 71 3d 4a 10 0f 3c e8 68 8b 3d
       -0.040859956 0.058898624 0.008731911 0.06807119
000320 a0 f5 ab bd 5c 26 c1 bc b9 32 9a 3d a7 05 24 bd
       -0.083964586 -0.023577861 0.07529206 -0.040044453
000330 69 00 1f 3d 5c 27 ab bd 6c e9 10 bd b7 b4 e4 bd
       0.03881875 -0.083571166 -0.03537886 -0.11167281
000340 fa 5a 01 be e7 39 b0 bd c5 2a e6 bc e9 88 ac bd
       -0.12632361 -0.08604794 -0.028096566 -0.08424551
000350 62 77 0a 3c 69 b3 7c 3d ee 6f 1e bd 0a fe 83 bd
       0.008451315 0.061694536 -0.038680963 -0.064449385
000360 a4 0f 8c 3d f4 96 a1 3c c1 ae c1 3c a0 87 3e 3c
       0.06838921 0.0197253 0.0236429 0.011629015
000370 d0 c6 91 bd 9d 31 8f 3d 4c 45 97 bd 20 e5 b1 bd
       -0.071179986 0.06991885 -0.07386264 -0.0868628
000380 fd 19 df bd 02 9e 9b 3c 6e f5 6d 3d c9 4b 90 bd
       -0.10893629 0.018996242 0.058095388 -0.07045705
000390 73 69 b4 bd e9 09 89 3c 93 19 94 bc 10 a7 64 3d
       -0.08809175 0.016728358 -0.018078601 0.055823386
0003a0 dd 78 14 3c bd a2 61 bd af d2 c0 bc 7a 36 b4 3d
       0.009062019 -0.05508684 -0.023537962 0.08799453
0003b0 27 7b 61 3d 82 d2 dc 3c 20 7e 09 3d 80 89 d3 bc
       0.055049088 0.026955847 0.033567548 -0.025822401
0003c0 c8 a0 fe bc 02 e5 aa 3d 4a e4 da bd 89 29 73 39
       -0.031082526 0.08344461 -0.10688074 0.00023189759
0003d0 e1 4a 96 3d 39 27 7f bd a6 df b4 3d 7d bf eb bc
       0.07338501 -0.062293265 0.0883172 -0.028777832
0003e0 c3 79 7a bd 9a 71 cb bd 2f 4a a3 3d 5a 34 73 bd
       -0.061151277 -0.09933777 0.07973134 -0.0593761
0003f0 47 30 c8 3d 86 83 2c bd db 9d 42 3d b3 c8 53 bd
       0.09774833 -0.042117618 0.047513824 -0.051705074

conv1.bias f4 [6]
000000 f2 1e b8 bd 07 c6 90 3e 31 72 03 3e 94 c4 d2 bd
       -0.08990277 0.28276083 0.1283653 -0.102914006
000010 ab c0 88 3d 94 e5 0e 3e
       0.066773735 0.13954765

conv2.weight f4 [16, 6, 5, 5]
000000 0f c7 7e bd f6 8d f5 bc 26 77 ad 3d be 20 7a 3d
       -0.062201556 -0.029974919 0.084699914 0.06106638
000010 cd e1 ee 3c 73 59 a0 3d 01 af 3d bd 0a e3 9f 3d
       0.029160405 0.07829561 -0.046309475 0.07806976
000020 61 17 81 3d cd 4b 90 3d ad e4 65 bd a9 31 a1 3d
       0.06303287 0.07045708 -0.056126285 0.078708
000030 cf 0b d3 3c b0 9f 72 3c 26 ef 2f 3d aa a6 ae 3c
       0.025762467 0.01480858 0.04295268 0.021319706
000040 ef 44 d1 3c 7e 43 a9 bd 5f e2 7e bd 19 c7 2a bc
       0.025545565 -0.08264826 -0.062227603 -0.010423445
000050 dd e0 08 3d 2e c5 26 3d 42 e8 10 bc fb 43 db bd
       0.03341757 0.04071539 -0.008844437 -0.107063256
000060 35 ca 48 bc 5b 63 ab 3d 37 22 0b 3e 1d 94 88 3c
       -0.012255241 0.0836856 0.1358727 0.016672188
000070 9e 18 1d 3d a9 6f c7 3d 8c ce d3 3d ff 98 14 3e
       0.038353555 0.09738094 0.1034213 0.14511488
000080 c1 47 cb 3d 89 e0 1c 3e 23 d5 1a 3e f2 65 f3 3d
       0.09925795 0.15320028 0.15120368 0.11884679
000090 2a de 0f 3e f8 78 e2 3d 51 70 f4 3d 57 f3 09 3e
       0.14049593 0.11058229 0.11935485 0.13471733
0000a0 02 49 da bb ab 97 fb 3d 5f 65 ce 3a c9 c5 ac 3d
       -0.0066615352 0.12284788 0.0015746764 0.08436162
0000b0 ca 4f 4b 3d 16 ea 18 3d 7f d1 4f 3d 7e ca dd 3d
       0.04963664 0.037332617 0.0507369 0.10829638
0000c0 87 0b c4 3c 2a 37 a3 3d 3e 54 bd 3d 5f b3 d5 3d
       0.023931278 0.07969506 0.092445835 0.10434603
0000d0 46 69 e8 3d 88 07 2f 3d 5f 4d f7 3d ed 48 f2 bc
       0.11348204 0.04273179 0.12075304 -0.02957579
0000e0 59 37 e5 3d 0c dc b0 3b ab 41 05 bc 9f 60 b4 3d
       0.11192197 0.0053973254 -0.008133332 0.088074915
0000f0 ec 0b d6 3d f2 60 88 bc 95 44 4e 3d c1 08 b0 3c
       0.10451493 -0.01664779 0.050358374 0.02148855
000100 cf ef fd 3c 75 85 1f 3d 92 d5 f0 3a d2 6a 89 3d
       0.030998139 0.038945634 0.0018374196 0.067098275
000110 ab 33 92 3b 44 1b 57 3d be ca 1a 3c d5 37 a4 3d
       0.0044617257 0.052516237 0.009447752 0.080184616
000120 7b c3 ea 3d a8 4a f2 3c de 6a 66 bb fc 21 07 bd
       0.11463066 0.029576614 -0.0035158913 -0.032991394
000130 f9 dd 8a 3d af 20 3a bd 12 4f 31 3d 03 87 91 bd
       0.06780619 -0.045441326 0.043288298 -0.071058296
000140 ce 78 f4 3c eb 47 5b 3d 95 15 04 3d c3 ce 51 3c
       0.02984276 0.053535383 0.032247145 0.0128056435
000150 4b 12 1f 3d d6 30 39 bd 32 e2 34 3d 2c be 5a bd
       0.038835805 -0.04521259 0.04416103 -0.05340402
000160 7c 7a d6 bc 5b 7e a1 bd b0 58 11 3d 0c e9 34 bd
       -0.026181452 -0.078854285 0.03548497 -0.044167563
000170 c1 f3 15 bd 91 fb 5b 3c 57 a7 67 3d cb 2f 9a bc
       -0.036609415 0.013426677 0.056556072 -0.018821618
000180 02 d8 e2 bc 60 85 87 bd dd e0 22 bd b4 3c ab bc
       -0.027690891 -0.06617236 -0.039765228 -0.020902969
000190 b0 f9 f0 3d 17 7c ea 3d 2f 71 99 3d ae c7 32 3d
       0.11766374 0.114494495 0.07492291 0.04364746
0001a0 fd ee d8 3d e5 a2 17 3d 72 b7 e7 3d d5 ab ec bc
       0.105924584 0.037020583 0.11314286 -0.02889053
0001b0 58 ff 8c 3d 4b cc 48 3d 3d 09 54 3d 6d b8 f2 bb
       0.068846405 0.049022954 0.051766623 -0.007407239
0001c0 9c 27 33 3d 19 3d 91 3d 33 ff d4 3d 9c d4 30 bc
       0.043738946 0.070917316 0.10400238 -0.0107928775
0001d0 ac 68 47 3d 8e 48 6b 3d 17 f0 d8 3d 5e 42 0c bd
       0.048683807 0.05744224 0.105926685 -0.03424298
0001e0 0e 79 30 3b 81 de 82 3d de f1 c9 3d c0 23 13 bd
       0.0026927623 0.063900955 0.09860586 -0.035922766
0001f0 53 35 bb 3d 51 c8 57 3d 72 8b 58 3d 2d 55 82 3d
       0.0914103 0.05268127 0.05286736 0.06363902
000200 30 9e 65 3d 38 aa c1 3d a0 36 25 bd 6c 0e a0 3c
       0.056059062 0.09456295 -0.040335298 0.019538127
000210 93 5e 02 3d bd ac 86 3d 2c a6 2c bd 12 75 18 bd
       0.031828474 0.06575916 -0.04215066 -0.037221022
000220 31 77 33 bc 44 dd 00 3d 09 19 a0 3d 67 31 ca 3d
       -0.01095371 0.031461015 0.07817275 0.09872704
000230 91 73 b2 3d 5a 7d a5 3d 5e cb ab 3c 72 a8 31 3d
       0.08713449 0.080805495 0.020970996 0.043373533
000240 de a7 19 bd 3e 87 99 3d 29 c6 f2 3c c5 0d e1 3d
       -0.037513606 0.074964985 0.029635506 0.109889545
000250 9f 71 db 3b 1f 39 6d 3d 90 f5 9f bc 79 58 6b 3d
       0.0066968943 0.057915803 -0.019526273 0.05745742
000260 bd 39 a4 bc 68 c6 43 bc 9d 02 6b 3c 60 b8 5f bd
       -0.020047063 -0.011949159 0.014343885 -0.054619193
000270 cf 74 90 3c 7e 9d a0 bc 58 25 bc 3c 42 c1 0c bd
       0.017633824 -0.019606348 0.022967026 -0.034363993
000280 c7 85 a8 3d ea 1e 8f 3d ba cc 8f bc a3 49 cd bc
       0.08228641 0.06988318 -0.017553676 -0.025059527
000290 46 6b 9b bc 79 2f 75 bc be 70 79 bd f9 5e e9 3b
       -0.01897205 -0.014964932 -0.060898535 0.0071219173
0002a0 03 eb 26 bc 7b dc 18 3d 85 9f f9 bc 45 9f 61 bd
       -0.010187867 0.03731964 -0.030471573 -0.055083532
0002b0 e5 31 aa 3c 8e 57 7c 3d 69 8e 22 3d 6f 47 90 bd
       0.020775745 0.061606936 0.039686594 -0.07044875
0002c0 ba dc 8f bd 4c c5 4c bd 98 03 23 bc 88 6c a8 3d
       -0.07024522 -0.049992844 -0.009949587 0.08223826
0002d0 b5 41 77 3d 3e c9 7e 3d d3 af ef 3c af 03 a4 3c
       0.060365397 0.06220364 0.029258644 0.020021288
0002e0 93 b0 52 3c 5d 7b 31 bd d1 dd 95 bc ed 6c 0f bd
       0.012859481 -0.04333054 -0.018294247 -0.03501599
0002f0 4a a4 0b 3d d1 90 a0 bd 95 1c 81 3c 2f 6a 1a 3d
       0.034092225 -0.078401215 0.0157607 0.03769892
000300 15 24 9d bd c6 2d b0 3a 69 99 d9 3c e2 58 96 3c
       -0.07672898 0.0013441376 0.02656241 0.01835293
000310 1c 41 f4 bb b1 e4 d0 bb 7a 24 4f 3d c2 36 a0 bd
       -0.0074540507 -0.0063749184 0.050571896 -0.07822944
000320 37 4f a3 3d 5c aa e5 3c 62 90 22 3d 52 38 5e 3d
       0.079740934 0.028035335 0.039688475 0.05425293
000330 7c b7 89 3d 37 62 6b 3d f6 af 4e 3d 0d 95 97 bb
       0.0672445 0.05746671 0.05046078 -0.0046259225
000340 c4 24 7b bc 12 c3 5e 3d 82 07 5f 3d 5a 0f 9c bd
       -0.01532859 0.054385252 0.05445052 -0.076201156
000350 4b ce 07 bd 50 83 be 3c 43 b7 67 bc f0 82 0e bd
       -0.03315572 0.023255974 -0.014142814 -0.03479284
000360 50 f2 d9 38 45 87 a0 bb bc 13 92 bd 9d e2 f0 bc
       0.000103925006 -0.004898938 -0.0713267 -0.029404933
000370 91 7f 7d 3d e8 09 8c 3c 33 7b 60 3c bd e3 0e bd
       0.061889235 0.017094567 0.013701248 -0.034885157
000380 9b 95 86 3b 8a 5c dd 3b 9a a4 77 bd 9f 58 a4 bc
       0.00410719 0.0067554163 -0.06045971 -0.02006179
000390 f6 ad 88 3d 8e ef b2 bb 4a 55 ac 3c 7b dd 86 3d
       0.066738054 -0.005460686 0.021036763 0.06585213
0003a0 1e a7 be 3c 55 76 ac bc 0f e5 81 ba 60 02 8e bd
       0.023273047 -0.021052519 -0.0009910184 -0.06934047
0003b0 bd 76 a0 3d 95 9e 83 bd ed 97 12 3d de 9a 4b bc
       0.078351475 -0.064267315 0.03578942 -0.01242706
0003c0 a2 c3 bf 3b 8c 53 90 bc f8 a4 f9 bb 2c 40 5e bc
       0.0058521787 -0.017617963 -0.0076185428 -0.013565104
0003d0 a7 a8 4a 3c 53 60 cb bc 34 ab 19 3d 72 25 d4 39
       0.012369311 -0.024826204 0.037516788 0.0004046369
0003e0 e7 e2 e6 3c 0e 25 8f bb e9 cc 62 bd e9 c9 6a 3d
       0.028184367 -0.004368431 -0.0553712 0.057321463
0003f0 f8 05 a8 bc 0c a7 9a 3d ee ea 26 3d 5b f1 49 3b
       -0.020510659 0.07551393 0.04075139 0.0030814025

conv2.bias f4 [16]
000000 4a 64 9b 3d 87 89 09 bd 58 a6 f9 3b a7 01 65 bc
       0.07587488 -0.033578422 0.0076187067 -0.013977445
000010 0c 91 e5 bc 4f ee 68 3c a9 8d 95 3c a9 5a 95 bd
       -0.028023265 0.014216973 0.018256025 -0.07292683
000020 06 b1 62 bd 89 b8 38 bd a0 e3 31 bd df 71 ca 3d
       -0.055344604 -0.04509786 -0.04342997 0.098850004
000030 44 32 20 3d 4c 88 f0 3c e2 f5 87 bd 4a 6a 9d 3d
       0.039110437 0.029361866 -0.06638695 0.07686289

fc1.weight f4 [120, 400]
000000 20 21 13 3d 28 b4 94 bc e6 45 1b bd 47 2e 2a bc
       0.035920262 -0.018152311 -0.037908457 -0.01038701
000010 7d 8c df bc ec 64 34 bd 8a 5c f1 bc 55 0c 19 3c
       -0.02728867 -0.04404156 -0.029463071 0.009341319
000020 40 6b 17 bd bc c9 3e bd 56 ba a8 3c e1 7e 4b bd
       -0.036967516 -0.046579108 0.020596664 -0.049681548
000030 c2 7b 23 bd 40 8a e8 3c 0e cb d0 3c 9f 13 da 3c
       -0.039912947 0.028386235 0.025487449 0.026620684
000040 b5 b5 44 3c 6b 43 7a bc 16 7f b5 bc 96 c3 6c 3c
       0.012006213 -0.015274863 -0.022155326 0.014450928
000050 33 9b 12 bc d5 db a0 bc 88 ca 73 bd c0 e2 93 3c
       -0.008948135 -0.019636074 -0.05951932 0.018052459
000060 c6 15 21 bd 86 f7 bc 3c 7c 4e 18 3a 88 18 9b bc
       -0.039327405 0.023067247 0.0005810035 -0.018932596
000070 15 15 ac bc 2e cc 09 bd 67 47 77 3c d0 c5 cd bc
       -0.021006146 -0.033641987 0.015092707 -0.025118738
000080 77 82 cf 3c 07 76 94 bc f7 48 a3 3a 98 30 2d 3d
       0.025330765 -0.018122686 0.0012457658 0.04228267
000090 d5 2c 20 bd 3c fe ed 3b 44 f3 0e 3d 53 52 49 3d
       -0.039105255 0.007262973 0.034899965 0.049150776
0000a0 b5 c4 00 39 b0 12 48 bd fa a2 38 bd fc 20 36 bd
       0.0001228031 -0.048845947 -0.0450773 -0.04446505
0000b0 33 89 bd bc 91 ea d1 3c 9d 9d 80 bc 49 4b 1b 3d
       -0.02313671 0.025624545 -0.015700156 0.037913594
0000c0 5d bf 3f bd 88 55 26 bd 3c 56 8a 3b e6 f0 2f bc
       -0.046813358 -0.040608913 0.0042217057 -0.010738587
0000d0 9b 1f 48 3d 69 02 58 bb d7 67 9c 3c 66 28 3c 3d
       0.048858266 -0.003296042 0.019092483 0.045936964
0000e0 cc 9b 37 bd 4f 36 2b 3d 98 84 c5 3c d9 33 f4 3c
       -0.044826314 0.04179984 0.024111077 0.02980988
0000f0 a2 93 31 bc cb e7 3a bb ce 32 0c bd ae 61 bc 3c
       -0.010838421 -0.0028519507 -0.03422814 0.022995796
000100 6b 8f 24 3d a3 1e 4a 3c c0 73 fe 3c 83 0e 42 bd
       0.040175837 0.012336406 0.031061053 -0.04737712
000110 fb eb 00 3d 54 82 c0 bc 69 ef 3f bd 87 72 fd bb
       0.03147505 -0.023499645 -0.04685918 -0.0077346
000120 43 8e ea 3c 5a 69 33 3d ac 2f af bc 21 53 d8 39
       0.028632289 0.043801643 -0.021385036 0.00041260666
000130 46 be 03 3d 9a 52 c7 3a ea 9e 0e 3d b5 11 44 3d
       0.03216388 0.0015207112 0.03481952 0.04786845
000140 e4 7c dc 3c 9c cf 28 3c 86 bc 47 bc 0f f1 e9 3c
       0.026915021 0.010303404 -0.012190944 0.028557329
000150 99 55 c4 3c 79 66 00 3b 14 b0 3d 3d 3d 02 2b 3c
       0.023966597 0.0019592328 0.0463105 0.010437545
000160 1b cf 0e bd 4b 64 1e 3c 80 ce 32 bd b0 67 13 bd
       -0.03486548 0.009667466 -0.043653965 -0.035987556
000170 5e 56 5a bc f1 9d 7e bc 24 4c f2 3a d2 87 37 3d
       -0.013326256 -0.015540586 0.0018485826 0.044807263
000180 9a 36 b6 3c 03 23 cf bc 19 2d c4 bc 16 a0 3b 3d
       0.022242833 -0.02528525 -0.023947285 0.045806967
000190 ec e4 0a 3a 25 0e 40 bb 87 0f 50 bc 0f 04 dd bc
       0.0005298394 -0.0029305306 -0.0126990145 -0.026979474
0001a0 98 fc 3a bc 09 9f 26 bd 1e 32 23 3c 59 fa f1 bc
       -0.011412762 -0.04067901 0.009960679 -0.02953832
0001b0 9c 19 b0 3c 92 39 85 bc 58 1a 32 3c 27 18 22 bd
       0.021496587 -0.016262803 0.010870539 -0.039573815
0001c0 66 4c 0b 3d f0 71 c3 3c b5 4e 98 bc 55 6d 65 bb
       0.034008406 0.02385804 -0.018592218 -0.0035007794
0001d0 82 e5 10 bc e5 b2 f4 bb 87 fe d9 bc f9 3f 95 bc
       -0.008843781 -0.007467615 -0.026610626 -0.018218981
0001e0 93 64 62 3d d6 e5 1e 3c e3 78 02 3d 60 de 1e 3d
       0.055271696 0.009698352 0.031853568 0.038786292
0001f0 1d a1 28 3d ff 84 af 3a 38 0a 15 bc 5b 57 14 3d
       0.041169275 0.0013391076 -0.009096675 0.03621612
000200 6c 0d 2f 3d ab f8 4b bd 61 55 28 3d cd 6f 90 bc
       0.04273741 -0.049797695 0.04109705 -0.017631436
000210 b3 8d e3 3b a8 0c 1d 3d ae 53 43 bd ae 82 7a bc
       0.006944382 0.038342148 -0.047687225 -0.0152899455
000220 79 f9 db 3c 97 c4 20 bd 49 e0 1a bd 47 7c 3c bd
       0.026852356 -0.039249983 -0.03781155 -0.046016958
000230 b3 aa e4 bb 5c 85 12 bd 3a e9 ac 3c 97 50 bf bc
       -0.0069783567 -0.035771713 0.021107305 -0.023353858
000240 c0 15 dd 3b 25 82 f2 bc 08 09 c0 3c 37 5a ea bc
       0.0067469776 -0.029603073 0.023441806 -0.02860747
000250 c3 be 84 3b be a1 f8 bc b9 c4 86 bc b7 44 a4 bc
       0.004051061 -0.030350562 -0.016451227 -0.020052297
000260 29 00 d2 bc 73 48 9e 3c fb ab c6 bc c9 f8 3f bc
       -0.025634842 0.019321656 -0.024251929 -0.01171703
000270 f0 ba 3e bd 50 7d b3 3a d1 fc bb 3a 6f b8 0f 3c
       -0.046564996 0.0013693962 0.0014342313 0.008772
000280 15 08 84 bc 78 a5 a3 bc 4e 25 c8 3c 57 0a 58 3c
       -0.016117135 -0.019976363 0.02443185 0.013186059
000290 98 f6 61 3c 8b 93 e3 bb 33 5d 67 bd 61 83 3e bc
       0.013791703 -0.0069450787 -0.056485366 -0.011628003
0002a0 8b cb 20 bd 90 05 e8 bc 4f 6d fc 3c cf a9 a5 3c
       -0.039256614 -0.028322965 0.030813841 0.020222573
0002b0 8a f4 2d bd 10 52 9c bc 98 17 27 bc 1c 37 ed bb
       -0.04246954 -0.0190821 -0.010198496 -0.0072392356
0002c0 63 8b 32 3d 97 6c 10 bc ef 30 b6 3c b7 27 ad bc
       0.04358996 -0.008814952 0.02224013 -0.021137102
0002d0 f1 46 b6 bc 63 09 e2 3c d6 5b 33 bd b7 d7 ae 3c
       -0.022250624 0.027592367 -0.043788753 0.021343095
0002e0 19 9d 56 3d 75 1e 38 3c ce 83 b7 3c a5 38 09 3d
       0.052395914 0.01123773 0.022401717 0.033501286
0002f0 ff b8 7f 3b 08 35 ec bc 2a ed a4 3c 49 d1 25 3d
       0.0039020178 -0.028833881 0.02013262 0.040482793
000300 6a 35 15 3d fc 3c aa 3c 40 3e 45 3c 63 4e 86 3c
       0.036427893 0.020781033 0.012038767 0.0163948
000310 16 b6 d5 3c 05 e2 fe 3c 2a 33 48 3d be 9f 6a 3d
       0.026087802 0.031113634 0.04887692 0.05728125
000320 b6 03 42 3d 44 6a 2d 3d 08 aa ea bc ce a9 51 bd
       0.04736682 0.04233767 -0.02864553 -0.05118733
000330 ee e9 bb 3a 44 8e d5 3c 5b af c0 bc 4e b3 4c bd
       0.0014336684 0.026068814 -0.023521116 -0.049975686
000340 24 ad 52 bd 77 87 00 bd 6a f8 e3 3b f4 82 01 bd
       -0.05143465 -0.03137919 0.0069571035 -0.031619027
000350 dc 7b 36 bb 26 0b 48 bb 39 7b 25 bd 7d 68 34 bd
       -0.0027844822 -0.0030524223 -0.040400717 -0.04404496
000360 2d 23 d9 ba 84 00 ba 3c 9d ab 32 bd ef e0 06 3c
       -0.0016566269 0.022705324 -0.043620694 0.008232339
000370 d9 5b 11 bd eb 99 db b9 31 76 86 3c 26 b6 8e 3c
       -0.035487983 -0.00041885613 0.01641378 0.01742084
000380 64 b0 df 3c 95 30 36 3d 0d dd 8f bc 0a 84 5d 3c
       0.02730579 0.044479925 -0.01756146 0.01352025
000390 d1 2c 7d 3c ea d8 75 3d a7 a3 28 bc 3d c8 37 3d
       0.01545258 0.06002132 -0.010292924 0.044868696
0003a0 96 7e 6a bc f5 ac d2 bc 7e 77 5b 3c 60 a5 a2 bc
       -0.014312407 -0.025717238 0.013395188 -0.019854248
0003b0 63 d6 a6 3c 09 4b 11 bd ac 2f 40 bc be 8c 20 3d
       0.0203659 -0.03547195 -0.011730116 0.039196722
0003c0 56 6b 20 3d 13 fd 00 3c de fa bb 3b 46 60 08 3b
       0.039164864 0.007872838 0.005736693 0.0020809337
0003d0 3f e1 2e 3d 46 ab 74 3c 79 24 b8 b9 e6 56 00 3c
       0.04269528 0.014933413 -0.0003512239 0.007833218
0003e0 0d 82 9d bb ae e7 ad 3c bc c3 e1 bc 7a b2 13 3c
       -0.004806763 0.021228638 -0.027559154 0.00901472
0003f0 33 1d 47 bd c3 19 86 3c ab 6f 05 3d c3 97 12 bd
       -0.04861183 0.016369706 0.032577198 -0.035789263

fc1.bias f4 [120]
000000 ce c6 f6 bc ec d2 3d 3c cb 61 5c ba 22 36 92 3b
       -0.030124094 0.011585932 -0.0008406906 0.0044620195
000010 77 c5 e7 b8 79 c2 3a 3d 55 70 d2 bc 63 83 e0 bc
       -0.00011051719 0.04559562 -0.02568833 -0.0274064
000020 bd e6 4e bc 47 e7 f1 3b 19 c4 1c 3b 55 24 08 bc
       -0.0126282545 0.0073823067 0.0023920594 -0.0083094435
000030 a1 9a 26 3d e2 5f a2 3b 99 6f 06 bd 9b 5f 3e bd
       0.04067481 0.004955278 -0.03282127 -0.046477895
000040 9d 46 f7 3c 34 d0 5b ba 00 14 0d bd cc d2 30 bd
       0.030185038 -0.00083852117 -0.0344429 -0.04316978
000050 78 de 0f 3c af 99 aa bc 8e 3c 50 bd de dd 13 bd
       0.008781068 -0.020825235 -0.050839 -0.03610026
000060 13 f4 29 bd c0 b6 25 3d 94 69 c1 bc 40 53 1a bd
       -0.041492533 0.040457487 -0.023609914 -0.03767705
000070 90 0d 02 bd 46 c3 b6 3b 8c 95 0c 3d 23 6a 12 3d
       -0.031751215 0.0055774776 0.034322307 0.03574575
000080 9b 74 f2 3c aa 8e 09 3d 5d ac 25 bd 8e c2 41 bd
       0.029596617 0.03358332 -0.04044758 -0.047304682
000090 0c c5 e6 3c 77 32 19 bc 09 fe 15 3c 4a 52 34 3d
       0.028170131 -0.009350411 0.009154805 0.04402379
0000a0 bb ea c3 bc 43 72 87 3c 17 c2 00 3d 60 d9 ce bc
       -0.02391564 0.016533976 0.0314351 -0.025250137
0000b0 66 a5 ca 3c b0 9d 28 3d 3d 48 fe 3c 87 89 21 bd
       0.024737071 0.041166008 0.031040305 -0.039437797
0000c0 00 6f 25 bc f4 cc 8b bc ed 2c 62 bc 22 0b 63 bc
       -0.010097265 -0.017065503 -0.013804656 -0.013857635
0000d0 b8 3d f6 bc ac 2a 45 bd d2 83 e0 3b 47 32 14 bd
       -0.030058727 -0.0481364 0.0068516517 -0.03618076
0000e0 db 07 83 bd 5e d9 de 3c 94 93 22 bd 9b 41 e3 bc
       -0.06397983 0.027203258 -0.039691523 -0.027741244
0000f0 8e 8b 05 3c 4a 27 01 bd 98 ce eb 3c a7 30 bc bb
       0.008150948 -0.03153161 0.028785035 -0.0057431045
000100 68 66 d2 3c f7 6f 52 3b 6e 37 8b bb 93 0a e0 bc
       0.025683597 0.0032110193 -0.004248551 -0.027348792
000110 55 92 2c 3d 9f ef 38 3d e9 2b 17 3d 80 01 fd ba
       0.04213174 0.045150395 0.03690711 -0.0019302815
000120 e0 b0 47 bd b7 e4 3e 3c f7 fd 68 bc d1 c6 68 bc
       -0.048752666 0.01165121 -0.014220706 -0.014207558
000130 4d f2 47 3d 78 41 87 3c e4 8a 3f bd 4b 50 41 3c
       0.04881506 0.01651071 -0.046763316 0.0117989285
000140 93 21 eb bc 78 aa ae bb bb 2e b4 bc db af 11 3d
       -0.028702533 -0.00533038 -0.02199494 0.0355681
000150 d6 b1 60 ba 84 13 e0 bc 6c 1e 49 3d e0 6e ae 3b
       -0.00085714215 -0.027353056 0.04910128 0.005323276
000160 f1 06 01 bd 6c cf 2d 3d bb e8 83 bc cd 2d c5 bc
       -0.03150076 0.04243414 -0.016102185 -0.024069691
000170 85 18 2b 3d 65 f9 64 3d 93 7b d9 bc 13 44 b0 bc
       0.04177143 0.055901904 -0.026548183 -0.021516835
000180 d2 ea 63 3c d9 20 00 bd 79 27 36 bb bb 2b d0 bc
       0.013910966 -0.031281326 -0.0027794524 -0.025411477
000190 90 ea 2b bd 58 c8 3b bd 00 de 81 bc 6c 9e 79 3d
       -0.041971743 -0.04584536 -0.015852928 0.0609421
0001a0 9a 8f f6 3b ea ce 42 bd fb 53 92 bc 37 42 d9 bc
       0.007524443 -0.04756061 -0.01786231 -0.026520832
0001b0 39 25 4d 3d 73 42 1c 3d 67 a8 44 3b 3c ee 31 3d
       0.050084326 0.03814931 0.0030007602 0.04344009
0001c0 31 b4 3e 3b 0f 08 14 3d a7 4b ab 3c 07 b5 9f 3c
       0.0029099102 0.036140498 0.020910097 0.0194955
0001d0 bc fe 46 ba 1b 59 14 bd 57 02 cd 3b 72 5f d5 bc
       -0.0007591059 -0.03621779 0.0062563824 -0.026046488

fc2.weight f4 [84, 120]
000000 21 b7 5e 3d 1d c6 f0 bc 18 35 f3 bc 57 30 88 bd
       0.054373864 -0.029391343 -0.029688403 -0.06649845
000010 53 51 61 3d 62 ce f9 bc a4 a0 5a bc 74 16 9f bd
       0.055009197 -0.030493919 -0.013343964 -0.077679545
000020 80 34 c5 bb ea b4 8b bd 34 82 34 3d 8c 21 87 3d
       -0.0060182214 -0.06821616 0.044069484 0.065981954
000030 a4 5e 33 bb 8c 43 67 3d 31 90 bc b9 81 f2 63 3d
       -0.0027369643 0.056460902 -0.00035965585 0.05565119
000040 7b 16 63 3c 8d 51 9d bd ef f4 80 3c 8b 27 54 bd
       0.01386034 -0.0768157 0.015741793 -0.051795524
000050 55 a3 57 bc 4c 2c c1 3c 25 e6 a0 bd 58 0d 94 bd
       -0.0131615 0.023580693 -0.078563966 -0.072291076
000060 20 54 dc bc 74 07 b5 bd 4c 4b 6d bd 57 eb b9 3d
       -0.026895583 -0.08839312 -0.057933137 0.09078091
000070 f6 7f 02 3d 68 33 14 3c fd a0 88 bc 79 d7 6a 3d
       0.031860314 0.009045459 -0.016678328 0.057334397
000080 47 6c 3d 3d b8 0b 0d 3b 21 4f 4a bd 51 d2 af 3d
       0.04624584 0.0021521877 -0.04939187 0.085850365
000090 55 b4 55 3d 73 56 83 3d 6e e6 a3 3d 8e 7d 86 bd
       0.05217393 0.06412973 0.08002935 -0.065669164
0000a0 2a 57 a1 3d f3 42 28 bd ac 5f 3f 3d d1 5d 0c 3d
       0.07877953 -0.041079473 0.0467221 0.034269158
0000b0 01 28 a2 3c 74 1c e8 bb 21 b5 f0 3c f6 bb e1 3c
       0.019794466 -0.00708347 0.029383244 0.027555447
0000c0 4e 2f 78 bd 39 c1 9f 3d 41 15 88 3c 3c 66 83 3d
       -0.06059199 0.07800526 0.016611697 0.06415984
0000d0 4d 06 ab 3c 22 c9 b4 3d 62 9d ac 3d 15 17 ad bd
       0.020877028 0.088274255 0.08428456 -0.08451668
0000e0 15 9e 97 3d 9d 17 89 3d 6f 3a 5b 3d 7c fb 73 bd
       0.07403199 0.06693957 0.053522523 -0.059566006
0000f0 bb 1e 5e 3d 25 6e a9 3d f9 1e 61 bd 32 70 83 3d
       0.054228526 0.082729615 -0.05496118 0.06417884
000100 c6 e7 aa 3d 8a 9d f9 3c de 51 ae 3d f6 26 b5 bd
       0.083449885 0.030470628 0.08511709 -0.08845322
000110 02 ef 8e 3d e7 13 7d 3d 59 ed 4f bd e7 85 09 3d
       0.06979181 0.06178656 -0.05076346 0.033574965
000120 26 7e 8b 3d cd 07 f5 3c 33 cb b3 bd 30 3d 09 3d
       0.0681117 0.029910946 -0.087789916 0.03350562
000130 0b d2 dd 3c 90 0e a0 bd 7f ed 44 bd f0 f6 b7 3a
       0.027077695 -0.078152776 -0.048078056 0.0014035385
000140 b6 6d 47 bd b0 92 ac 3d e4 65 68 3d 75 5a e8 3c
       -0.048688613 0.08426416 0.056737795 0.028363446
000150 08 57 b2 bd a8 d6 ae bd 37 d6 8c bd 7f 5c 6e 3d
       -0.08708006 -0.08537036 -0.06876796 0.05819368
000160 dd 4b 00 bc 2b ed 74 3d bb 37 15 3d 14 be 0d bc
       -0.007830587 0.059796494 0.0364301 -0.008651275
000170 36 9a 89 3d f9 07 30 3d 8a 03 aa bd 3d ee ae 3d
       0.067188665 0.042976353 -0.08301456 0.08541534
000180 23 18 66 3d 1a 09 01 3c 70 4c 84 3c 7c 29 a3 bd
       0.056175362 0.007875705 0.01614973 -0.07966897
000190 cb 40 b2 bd 41 d6 19 3c c0 17 f1 3c eb dc 92 3d
       -0.087037645 0.009389461 0.02943027 0.07171043
0001a0 df 8f 47 3d c4 63 c0 3c 8b fa 4b bd d2 b8 45 3b
       0.04872119 0.023485072 -0.049799483 0.0030169976
0001b0 56 b4 a4 3d f0 6c 4b 3d b7 4b b1 bd f5 ad 98 bd
       0.08042209 0.049664438 -0.086570196 -0.07455055
0001c0 52 47 b0 3d 87 b8 9b 3d e5 6e 90 3b 02 cf 02 3d
       0.08607353 0.07603555 0.004407751 0.0319357
0001d0 a8 00 f9 3c a5 26 48 bd 23 b9 ba 3d 3f 56 53 3d
       0.03039582 -0.04886498 0.09117343 0.051595923
0001e0 5e ba c4 3b 37 e1 c4 3c 10 43 a6 bc ea 5a 96 3d
       0.006003662 0.024033172 -0.02029565 0.07341559
0001f0 91 5f 8f 3d f7 8b 44 3d 95 31 95 3d eb 84 46 bd
       0.0700065 0.047985043 0.07284848 -0.048466604
000200 f5 f2 b2 3d 1b 85 8b bd 99 87 c0 3c 4c b7 06 3d
       0.087377466 -0.06812497 0.023502158 0.03288965
000210 ae 80 93 3b c0 1b 13 bd 36 c7 0c bd 99 fb 48 bd
       0.004501424 -0.035915136 -0.03436967 -0.049068067
000220 6c 95 a0 bd 65 ea 8d 3d 45 85 b2 bd b7 11 2b bd
       -0.07841 0.06929473 -0.087168254 -0.04176494
000230 0a 78 36 3c a1 cc 5f 3d 39 f1 62 bd b9 68 ba 3d
       0.011137018 0.05463851 -0.05540583 0.091020055
000240 74 54 a7 bd 98 b0 86 3d 7e 41 42 bd 1b 5e 17 3d
       -0.08170405 0.06576651 -0.04742574 0.03695498
000250 f8 f2 4e 3d 7a e5 ce bc f9 34 9f 3d d5 d6 67 3d
       0.05052468 -0.025255907 0.077737756 0.056601364
000260 a4 c3 10 3d 03 1b 2d bd 86 fc 2e bd 57 2b 03 bd
       0.035342827 -0.04226209 -0.042721294 -0.032023754
000270 1f c7 36 3d fc 7a 68 b9 77 05 98 3c ea 17 d5 bd
       0.04462349 -0.0002217106 0.018557293 -0.10404952
000280 09 5d 2e 3d 33 03 88 bd b1 42 5f bd 22 13 b3 bd
       0.042569194 -0.06641235 -0.05450696 -0.08743884
000290 16 f4 99 bd be 3a ad 3c 52 23 1a bd 06 76 aa 3d
       -0.07517259 0.021146175 -0.03763134 0.083232924
0002a0 01 d1 bb 3c 8b 59 fa bb b5 9f 0f bd e6 c5 0e bd
       0.02292681 -0.007640069 -0.035064418 -0.0348567
0002b0 72 2c b2 3d 30 68 9f bd 57 76 7b 3b a5 22 7e bb
       0.086998835 -0.07783544 0.0038370097 -0.0038777974
0002c0 de 11 25 bd 1b 03 02 bb 70 4f a8 bd 19 2e 46 bd
       -0.040300243 -0.0019838277 -0.082182765 -0.048383806
0002d0 35 49 93 bd 0f 46 9f bc c5 86 df 3c 53 55 8a 3d
       -0.071916975 -0.019442586 0.027285943 0.067545556
0002e0 ce a2 8b bd c0 bd 36 bd db 58 81 3d 3a ee 75 3d
       -0.06818162 -0.044614553 0.06315776 0.060041644
0002f0 23 e2 81 bd e1 51 82 3d 24 47 2e 3d 6c 61 1f bd
       -0.0634196 0.063632734 0.042548314 -0.038911268
000300 bd 92 58 bd 50 d7 0e 3d a7 e0 2b bd 4f f0 8c 3d
       -0.052874316 0.034873307 -0.041962292 0.06881773
000310 ee 43 b1 3d 33 13 b2 bd 6c a9 61 bd 05 8d 28 bd
       0.08655535 -0.08695068 -0.055093214 -0.04115011
000320 30 8a c0 3d 1a f6 ab 3d 2d 80 0b 3d 40 b5 b8 3d
       0.09401357 0.083965495 0.034057785 0.09018946
000330 da 86 5b 3d 09 34 64 3b cd c1 a6 3d 7f de 90 3b
       0.0535954 0.0034821054 0.08142433 0.004421055
000340 52 4c 48 bd 6e dc 4c bd 53 73 87 3d bf b3 17 bd
       -0.04890091 -0.050014906 0.06613793 -0.037036654
000350 1e 1a a4 3d 3b 7d 44 bd c4 3b 8a 3d ba 4b 12 bd
       0.08012794 -0.04797099 0.06749681 -0.03571675
000360 76 5e e5 bc f9 13 3e bd c6 1f f5 3a 00 47 fd 3c
       -0.027999144 -0.046405766 0.0018701486 0.030917645
000370 14 2e bd 3d 1c 56 ff bc 5a d1 18 bd ae 1b 8d 3d
       0.09237304 -0.03116899 -0.03730903 0.06890045
000380 a9 92 80 3d e6 8f 91 bd 9b 9b b2 3d 51 e1 87 3d
       0.06277973 -0.071075246 0.08721086 0.066347726
000390 d6 25 0f bd 9c 9d 0f 3c 33 6b 93 3d d7 d5 04 bd
       -0.034948193 0.008765604 0.07198181 -0.032430496
0003a0 77 6d 20 3d 34 ba c4 bc 8e a8 8f bd 6e a0 36 bd
       0.039166894 -0.02401457 -0.07014571 -0.04458659
0003b0 9d 26 99 3c bd cd ad bd 9b 3e 0d bd 08 f1 b6 3d
       0.01869517 -0.08486507 -0.034483533 0.08932692
0003c0 51 9c 8c bd 01 8c 1b bd 80 0c 42 3d 1c de 51 bc
       -0.068657525 -0.037975315 0.047375202 -0.012809303
0003d0 35 93 72 bd a7 8f a3 3d ed dc 6f 3c 8a 83 6e bc
       -0.05922242 0.07986384 0.014640075 -0.014557729
0003e0 59 0c 0b 3d e6 48 4f bd 0e 91 94 bd 52 92 aa bd
       0.033947323 -0.05060663 -0.072542295 -0.0832869
0003f0 25 18 b9 bc 74 0b 8f bd fe 6c 49 3d 67 8e 85 bc
       -0.02259452 -0.069846064 0.04917621 -0.016303254

fc2.bias f4 [84]
000000 13 bf 80 3c e4 60 7f 3d 3f a5 77 bd 01 b6 97 bd
       0.015716111 0.06234826 -0.060460325 -0.07407761
000010 c6 4c de bc bf 0c 81 3d af 53 94 bd a0 e6 05 bd
       -0.027136218 0.06301259 -0.07242524 -0.032690644
000020 e7 98 e9 3d a7 f4 26 3d 0f f0 da 3c 60 23 9a bc
       0.11406117 0.040760662 0.026725797 -0.018815696
000030 26 26 ba bd 86 cd 0e 3d 9a 92 50 bd e3 dd c2 bd
       -0.090893075 0.03486397 -0.05092106 -0.09514978
000040 4e e3 f0 3d 1a c7 b0 bd 86 f0 ae bd 35 e0 88 3d
       0.11762105 -0.086317256 -0.0854197 0.06683389
000050 9f 7b e6 3c 59 b3 8c bd ba 8b bd 3d e3 71 a0 3d
       0.028135119 -0.06870145 0.09255166 0.07834222
000060 ea 1f 04 3c a9 ce 97 3c 3a d5 eb bc f3 b6 99 bd
       0.0080642495 0.01853116 -0.028788198 -0.07505598
000070 31 e4 45 3d ce 95 06 bd d2 ae 3d 3d 10 aa 9a 3d
       0.048313323 -0.03285771 0.0463093 0.07551968
000080 da 0e b7 bd de 89 c2 3c 08 23 65 bd 4a 33 57 3c
       -0.089383796 0.02374738 -0.05594161 0.013134787
000090 41 4c 55 3c ef 51 3b bd be 54 3a bc c8 78 a1 bd
       0.013018669 -0.045732435 -0.011372743 -0.07884365
0000a0 75 18 98 3c 7b 15 48 3d 15 b6 7a bc 14 28 19 3e
       0.01856635 0.04884861 -0.015302201 0.14956695
0000b0 97 9f 96 bd 27 97 81 3d fe 3c 8e bd a9 f4 bb bd
       -0.07354658 0.06327658 -0.06945227 -0.091775246
0000c0 8a df 9c bd e1 cc 0d 3e bc 1e 97 bd 0b 7c af 3d
       -0.07659824 0.13847686 -0.07378909 0.08568581
0000d0 23 f2 b6 bd a9 c5 3b bd ab 75 98 bc ce a7 e5 3d
       -0.08932903 -0.0458428 -0.018610796 0.11213647
0000e0 d6 7a 57 3d b0 b1 3d 3d ca 68 05 bb b9 af b3 bd
       0.05260738 0.046312034 -0.0020356649 -0.08773751
0000f0 56 f6 b7 3d 8c b0 07 3d 1e de d4 3c ad 18 7d bd
       0.08982532 0.033127353 0.02598482 -0.06179111
000100 f6 5c d8 3d 12 ea 76 3d e5 f4 76 3d 62 31 7c bd
       0.10564606 0.06028182 0.060292143 -0.061570533
000110 ca c5 7a bd 18 3d 19 3d d1 5e 7e 3d 44 78 84 3d
       -0.061223783 0.03741178 0.062102143 0.06468251
000120 a5 1e a0 3d 8f 28 92 bd e8 a3 7e bd 9a 06 ed 3b
       0.07818345 -0.07136642 -0.062168032 0.007233453
000130 c5 e9 ad bd 9f e1 7e bb 08 ee 1e bd 1d a3 61 bd
       -0.084918536 -0.0038891805 -0.038801223 -0.055087198
000140 e6 02 d8 bc ad d3 3d 3c 05 ae 25 3b 69 40 b0 3d
       -0.02636857 0.011586112 0.0025280726 0.08606035

fc3.weight f4 [23, 84]
000000 92 12 1f 3d a6 3b 2e bd b9 69 5f 3d 2d b9 6f 3d
       0.03883607 -0.042537354 0.054544184 0.058526207
000010 8f 65 9c 3b 68 3e 64 3d 01 62 6e 3d 14 4a dc 3d
       0.004772849 0.055723578 0.058198933 0.10756317
000020 10 9a 6f bd e2 0f bf 3d af c1 13 3d 29 7b 54 bd
       -0.058496535 0.09329201 0.036073383 -0.051875267
000030 4e 98 b0 bd 37 c8 25 3d 6f 02 5b bd a9 0e b3 bc
       -0.086228 0.040474143 -0.053469118 -0.021857576
000040 16 b4 4a bc 6c 22 d1 3c df 0c 02 bc c0 4f ef 3c
       -0.012372037 0.025529109 -0.007937639 0.029212832
000050 58 64 61 bd f6 70 b7 3d 58 1c e2 3c cd 83 ad 3c
       -0.055027336 0.089570925 0.027601406 0.021181012
000060 6a 47 00 3e 22 5c 76 bd 8d 6c eb 3d 91 c1 1e bd
       0.12527242 -0.06014646 0.11495314 -0.038758818
000070 83 c3 de 3c 8c ea 7e bd 05 2f 9a bd 34 68 64 3c
       0.027192837 -0.0622354 -0.075284995 0.01394086
000080 f0 2f 6b 3d f9 dd c0 bd 53 e8 96 bd a2 c4 9c 3c
       0.057418764 -0.09417338 -0.07368531 0.01913673
000090 a7 f8 cf bd 96 cd 2b bd 7e 72 c3 3d 13 ea d3 bd
       -0.101548485 -0.04194411 0.09543322 -0.103473805
0000a0 07 95 96 bd 47 a6 fc bc 3d d6 d9 bd dd 0b a0 3d
       -0.073526435 -0.030841006 -0.10636566 0.07814763
0000b0 ac 48 a0 bd 5f 71 3b 3d 24 f6 66 3d 54 b7 ba bd
       -0.07826361 0.045762416 0.05638708 -0.09116998
0000c0 1d 17 d1 bd 9d 58 a2 3d 2e 06 b8 bd 2d b1 3d 3d
       -0.10209487 0.07927058 -0.08985554 0.046311546
0000d0 14 2e ca 3d e2 36 3e 3d 64 d6 bf bc 69 a8 fe bc
       0.0987207 0.04643906 -0.02341766 -0.031086164
0000e0 4a c7 ac 3d b2 b9 84 bd 2c b4 f6 bb 8b 64 c4 bc
       0.08436449 -0.06480731 -0.0075288024 -0.023973724
0000f0 a1 69 cf bd 49 26 c0 bd 19 50 dd 3d ca 63 80 bd
       -0.10127569 -0.09382302 0.10806293 -0.06269033
000100 32 8d d5 bd d9 6e 67 3d 8c b8 d7 3d d5 82 58 bd
       -0.104273215 0.056502197 0.105332464 -0.052859146
000110 3d 4a 80 bc 62 e8 73 3d 17 43 65 bc d8 19 ad 3c
       -0.0156604 0.05954779 -0.013993046 0.021130487
000120 92 52 aa 3d 63 f8 62 bd 93 54 e6 3b a8 a5 60 3d
       0.0831653 -0.05541266 0.007029125 0.054845482
000130 f9 de 17 bb 00 b6 48 3d 99 03 35 bd ec f5 5e bd
       -0.0023173674 0.049001694 -0.044192884 -0.054433748
000140 7a c0 57 3d 25 f3 88 3d 4f dc 9d 3d b6 c6 a5 3d
       0.052673794 0.06687001 0.07708036 0.08094542
000150 e1 41 69 bc fb df 78 bd 91 06 69 3d 89 61 fb 3c
       -0.014236898 -0.06076048 0.056891028 0.030686157
000160 76 75 ca 3d ba 04 02 bc 17 56 0b bd 3c d8 2a bd
       0.09885685 -0.007935697 -0.03401765 -0.041710123
000170 29 f6 44 3d 19 1d 95 3c 39 03 c0 3d 40 43 9c 3b
       0.04808632 0.018202351 0.09375615 0.004768759
000180 6f 22 7e 3d e5 da 48 3d 4b 50 1f bd 35 40 be 3d
       0.062044557 0.04903688 -0.038894933 0.0928959
000190 2c e2 a0 3d 57 ac 50 bd 03 34 ce 3c 08 bf f7 bd
       0.07855639 -0.050945606 0.025171285 -0.12096983
0001a0 a4 be 7c bd 28 a6 87 bd 6a 4f 8b 3c 1c 09 38 3d
       -0.061705247 -0.06623489 0.017005641 0.044930562
0001b0 0e c8 b4 3d 23 e6 b5 3d 96 e8 e2 bc bb e8 aa 3d
       0.0882722 0.08881786 -0.027698796 0.08345171
0001c0 9f 6e 09 bd c3 3a b3 bd a4 c0 17 bd d1 c0 c9 3d
       -0.033552762 -0.08751442 -0.03704895 0.0985123
0001d0 40 9b 0b bd e3 1b b3 3d cf d4 5e 3d 30 79 06 3d
       -0.034083605 0.08745553 0.05440217 0.032830417
0001e0 36 8c bf bd 4e fc 0e bd 0f 53 f6 3c 56 ce 63 3c
       -0.09352915 -0.034908585 0.030068902 0.013904175
0001f0 98 75 c8 bd 20 25 8e bd 2e 5d 46 bd ed 02 81 bc
       -0.09788054 -0.06940675 -0.048428707 -0.015748465
000200 68 c9 32 3c 21 f9 96 bd dd 19 a3 bd 4b f8 b0 bd
       0.010912277 -0.07371736 -0.079639174 -0.08641108
000210 46 2a ba bd 14 8e 43 bd b9 80 51 3d 78 d3 9e 3d
       -0.09090094 -0.047742918 0.05114815 0.07755178
000220 fd 09 dd bd ee 83 9d 3d dc 20 b0 3d 9b b0 33 3d
       -0.10792921 0.07691179 0.086000174 0.043869596
000230 1d ae bf 3d 56 94 bc 3d e2 b0 40 3d 52 5f a7 bd
       0.09359381 0.0920798 0.04704369 -0.08172478
000240 a7 27 9f bd 56 e2 e4 3b a1 4f ad 3d 3a 6b 45 bd
       -0.07771235 0.006984989 0.08462454 -0.048197962
000250 28 31 a1 bd fb 98 95 3d 69 a7 a9 bc 68 de 3b 3d
       -0.07870704 0.07304569 -0.02070971 0.0458664
000260 47 ff a8 3d 95 19 be 3d 42 c5 99 bd e4 53 ec bc
       0.08251815 0.09282223 -0.07508327 -0.028848596
000270 d2 39 a3 3d 19 aa e4 3d a9 c7 46 bd 6f e5 5d 3d
       0.07970013 0.11165256 -0.048530255 0.054173883
000280 02 78 7a 3c 66 33 e4 3d b9 c4 b0 bd 74 ab a0 3c
       0.015287401 0.11142616 -0.08631272 0.019613005
000290 f1 99 0f bd 87 06 eb 3d e5 e3 47 3d de 94 bf bd
       -0.03505892 0.11475854 0.04880132 -0.09354566
0002a0 05 a0 ac bd 0a 10 05 be f5 19 b0 3d 5d 08 ec bc
       -0.08428959 -0.129944 0.08598701 -0.028812582
0002b0 4f 02 d2 bd 88 30 9a 3d f3 87 f1 bc 82 56 e0 3d
       -0.102543466 0.07528788 -0.029483771 0.10954
0002c0 dc 29 3a 3d 50 94 0c 3d da 51 bb bd 2c b1 20 bd
       0.045450076 0.03432113 -0.09146471 -0.039231464
0002d0 c8 37 ac bd ef a0 6a bd 94 eb 12 bd 7c 62 96 3c
       -0.08409077 -0.057282384 -0.035869196 0.018357508
0002e0 4c 8e 15 be ac b1 c8 bd 8e ba ec bb e6 86 83 3d
       -0.14605063 -0.09799513 -0.0072243875 0.06422214
0002f0 27 2c 2f 3d 96 f4 3c 3d d1 17 1b 3e 6d 8f 20 be
       0.042766716 0.046131693 0.15145804 -0.15679713
000300 62 0d 1f 3e 5b df 85 3d c1 ac 00 3d 37 cd cf bc
       0.15532449 0.06536742 0.03141475 -0.025366409
000310 60 23 77 bd 74 4c 41 bd 4e af 48 3e 85 92 c6 3d
       -0.06033647 -0.047192052 0.19598123 0.09695915
000320 3e af fc 3c d7 56 f0 bd 18 9c dc bc b8 21 bb bd
       0.03084528 -0.117353134 -0.0269299 -0.09137291
000330 49 bb 3f 3d 95 cc d7 bd a0 b1 84 3d ad 77 b3 bd
       0.04680947 -0.10537068 0.06479192 -0.08763061
000340 3e f5 e5 bd 4b 60 c2 3d f6 e7 85 3c 42 6f 5a 3d
       -0.11228417 0.09491023 0.01634596 0.05332876
000350 69 03 78 3a 31 cb 0e 3d f7 77 01 bd a5 a1 81 3a
       0.00094609574 0.034861747 -0.031608548 0.0009890093
000360 7f 1f 6a 3a c9 55 e1 bd ec 1a c1 bd f6 71 5a bd
       0.0008931085 -0.1100269 -0.09428963 -0.053331338
000370 24 c4 d4 3d 35 82 90 bd c8 18 5e 3d e1 1a 0e bd
       0.10388973 -0.07056085 0.054222852 -0.034693602
000380 e5 1b fc 3b f9 09 cb 3d 0d 4c 62 bd 68 5a bd 3d
       0.007693755 0.099140115 -0.05524831 0.09245759
000390 e0 02 cd 3c 91 ee 43 3b 21 21 e6 3c 8c 59 d4 3d
       0.025025785 0.0029896835 0.028091969 0.10368642
0003a0 e4 fe 45 be 39 06 b3 3c 76 ec b1 bd e2 7a 68 bd
       -0.19335514 0.021853553 -0.086876795 -0.056757815
0003b0 63 73 87 3a fb c2 90 3c fd 5d c8 bd 33 05 e8 bb
       0.001033407 0.017671099 -0.09783552 -0.007080698
0003c0 d4 b2 aa bc 3a 87 9b 3c bc c0 01 3d e0 9a 2f bd
       -0.020837225 0.01898538 0.031677946 -0.04287231
0003d0 9b 00 70 bd 7b 59 4e 3d a9 c7 fb bc 44 86 81 3d
       -0.058594327 0.050378304 -0.030734854 0.06324437
0003e0 9d 8d c1 3d 9a d3 5e bd 5b da d1 3c 2b ee 32 3c
       0.09450839 -0.054401018 0.025616815 0.0109210415
0003f0 17 7f 14 bd fd 7c ad 3d 15 b5 0a be 6a a1 03 3c
       -0.036254015 0.08471105 -0.1354564 0.00803409

fc3.bias f4 [23]
000000 f8 25 90 bd d3 b7 47 3d 6e ac 96 3d 17 86 ac 3e
       -0.07038492 0.048759293 0.07357107 0.33696052
000010 45 f2 03 be 83 d0 27 3d 8e e3 83 3d 15 22 00 be
       -0.12885387 0.040970337 0.06439887 -0.12513001
000020 28 fa a2 bd 8c 99 23 3d 60 3e d6 3d 41 52 f9 3c
       -0.0795787 0.039941356 0.10461116 0.03043473
000030 aa d9 ab bd d6 2e 6a 3d fa aa 84 ba 45 ee 39 be
       -0.083911255 0.057173572 -0.0010121756 -0.18157299
000040 e3 b0 9e 3d 5a 15 b5 3d ec 9f 32 be 77 ed 14 be
       0.07748582 0.08841963 -0.17443818 -0.1454371
000050 17 ad 9e bc 16 05 1d 3e d2 9f 06 3e
       -0.019369645 0.15333971 0.13146904
