model_checkpoints/trained_pruned_lenet_model.pth (torch, 256514 bytes, 10 tensors)

conv1.bias f4 [6]
0	0xbbd9322d	-0.006628296
1	0x3eb03f97	0.34423515
2	0x3e15739f	0.14594887
3	0xbd9a7e81	-0.0754366
4	0x3ddc5037	0.10757487
5	0x3e136c8b	0.14396875

conv1.weight f4 [6, 3, 5, 5]
0	0xbd7b2fd1	-0.0613249
1	0xbe2cbd84	-0.1686917
2	0xbe56a537	-0.20961462
3	0xbe23b424	-0.15986687
4	0xbd9cbda4	-0.076533586
5	0xbe3bdf56	-0.18346915
6	0xbdd766df	-0.10517668
7	0x80000000	-0.0
8	0x00000000	0.0
9	0x80000000	-0.0
10	0xbe311d56	-0.17296347
11	0xbd6e8a71	-0.058237497
12	0xbe4f026d	-0.20215769
13	0xbe30a497	-0.17250286
14	0xbe4d1252	-0.2002652
15	0x80000000	-0.0
16	0xbd9bc429	-0.07605774
17	0xbe2d134b	-0.16901891
18	0xbd5b1ac9	-0.05349234
19	0x80000000	-0.0
20	0xbdfbbe93	-0.122922085
21	0xbe509341	-0.20368673
22	0xbde31032	-0.110870734
23	0xbd77bdce	-0.060483746
24	0xbe15890d	-0.14603062
25	0xbe046e47	-0.12932692
26	0xbda7ba9e	-0.08189891
27	0xbe324d6c	-0.17412347
28	0x00000000	0.0
29	0x00000000	0.0
30	0xbd71f5c8	-0.059072286
31	0xbe134ed9	-0.14385547
32	0xbdfd869d	-0.12379191
33	0xbe3b7ee3	-0.18310122
34	0xbe0587dc	-0.13040107
35	0xbe3ef517	-0.18648182
36	0x00000000	0.0
37	0xbdcd3a79	-0.100209184
38	0xbe2d9e2f	-0.16954874
39	0x80000000	-0.0
40	0xbe21a72c	-0.15786427
41	0xbdd37f1d	-0.10326979
42	0x00000000	0.0
43	0xbe1d2510	-0.1534617
44	0xbe19a0a5	-0.15002687
45	0x00000000	0.0
46	0x80000000	-0.0
47	0xbe3df4da	-0.18550435
48	0xbe2b545d	-0.16731401
49	0x80000000	-0.0
50	0x00000000	0.0
51	0x3dd115ca	0.10209234
52	0x80000000	-0.0
53	0x80000000	-0.0
54	0x00000000	0.0
55	0x00000000	0.0
56	0x00000000	0.0
57	0x3e050032	0.12988356
58	0x3e003404	0.12519842
59	0x80000000	-0.0
60	0xbd5ec0d8	-0.05438313
61	0x3d881c93	0.06646075
62	0x80000000	-0.0
63	0x3dde7ec4	0.108640224
64	0x3dcec4e0	0.10096145
65	0x80000000	-0.0
66	0xbd971d16	-0.073785946
67	0x3dab1c5b	0.08355018
68	0x3d9c3588	0.07627398
69	0x00000000	0.0
70	0x00000000	0.0
71	0x3db92261	0.090397604
72	0x00000000	0.0
73	0x3df94dc8	0.12173039
74	0x3dc13aed	0.09435067
75	0x80000000	-0.0
76	0x3dacbcab	0.08434423
77	0xbd92672d	-0.071485855
78	0x80000000	-0.0
79	0x00000000	0.0
80	0x3d6655da	0.05623422
81	0x00000000	0.0
82	0x80000000	-0.0
83	0x00000000	0.0
84	0x3da0fbe4	0.07860544
85	0x80000000	-0.0
86	0x3db8fc0b	0.090324484
87	0x3dead140	0.114656925
88	0x00000000	0.0
89	0x3dad5d57	0.08465069
90	0x3d70c04f	0.05877715
91	0x80000000	-0.0
92	0x80000000	-0.0
93	0x3d945190	0.07242119
94	0x3d8b61cb	0.06805762
95	0x3d866328	0.06561881
96	0xbdb3d91e	-0.08781646
97	0xbdac1d76	-0.08404057
98	0xbd91593a	-0.07097097
99	0x3e12ab27	0.14323102
100	0xbd744a78	-0.05964133
101	0x00000000	0.0
102	0x00000000	0.0
103	0xbe16ee62	-0.14739373
104	0x3d7f502a	0.06233231
105	0x00000000	0.0
106	0xbe16b2d9	-0.14716662
107	0xbdb97987	-0.090563826
108	0x00000000	0.0
109	0x00000000	0.0
110	0xbe2c52d8	-0.16828477
111	0x00000000	0.0
112	0xbe229b0f	-0.15879463
113	0x80000000	-0.0
114	0xbdda4cde	-0.106591925
115	0xbd907128	-0.07052833
116	0x80000000	-0.0
117	0xbe0a4fb2	-0.13506964
118	0x00000000	0.0
119	0xbdc00761	-0.093764074
120	0x3db72c85	0.08944038
121	0x00000000	0.0
122	0x00000000	0.0
123	0x00000000	0.0
124	0xbdad24bf	-0.084542744
125	0xbd4f2f8a	-0.050582446
126	0xbe0b3dfc	-0.13597864
127	0xbdf036b7	-0.11729186
128	0xbe2295e7	-0.15877496
129	0xbe34bde2	-0.1765056
130	0xbddc3164	-0.10751608
131	0xbd606a1f	-0.054788705
132	0xbde514a9	-0.11185581
133	0xbe2aae30	-0.1666801
134	0xbdbee21a	-0.09320469
135	0xbdac3936	-0.084093496
136	0xbe23b078	-0.15985286
137	0x80000000	-0.0
138	0x80000000	-0.0
139	0x3d6ba7bd	0.057533015
140	0xbdd670cf	-0.10470735
141	0xbe07aac2	-0.13248733
142	0xbdc64a86	-0.09682183
143	0xbe0914e5	-0.13386877
144	0x00000000	0.0
145	0xbd909295	-0.07059208
146	0xbdfb585a	-0.12272711
147	0x00000000	0.0
148	0x3d7d1694	0.06178911
149	0x00000000	0.0
150	0x3de260b1	0.11053599
151	0x80000000	-0.0
152	0xbd7b0f3c	-0.061293826
153	0x00000000	0.0
154	0x80000000	-0.0
155	0x80000000	-0.0
156	0x3de95dc6	0.11394839
157	0x3df93e33	0.12170067
158	0x80000000	-0.0
159	0xbde23bb9	-0.110465474
160	0xbd843782	-0.064559
161	0x00000000	0.0
162	0x80000000	-0.0
163	0x3dc85e39	0.097835965
164	0x3de39643	0.111126445
165	0x3ded1b5b	0.11577483
166	0x3dbe171b	0.09281751
167	0x3daf4298	0.085576236
168	0xbd8099a7	-0.06279307
169	0x3dfcc1f0	0.12341678
170	0xbd9caab2	-0.07649745
171	0x3deb5b21	0.11491991
172	0x3e0176aa	0.12642923
173	0xbd515678	-0.051107854
174	0x00000000	0.0
175	0x3dbc0e06	0.09182362
176	0xbde1ae1d	-0.110195376
177	0x00000000	0.0
178	0xbd7c55ef	-0.06160539
179	0xbe0cb45c	-0.13740677
180	0xbd987750	-0.07444632
181	0xbde95ee5	-0.11395053
182	0x00000000	0.0
183	0x3d97a440	0.07404375
184	0xbdd2046a	-0.10254748
185	0x00000000	0.0
186	0x3d6ee1bf	0.058320757
187	0xbd91cc1e	-0.071190104
188	0x3dbc57fe	0.09196471
189	0xbde95a9e	-0.11394237
190	0xbd4d126d	-0.0500664
191	0x3dbaa355	0.09113184
192	0x80000000	-0.0
193	0x00000000	0.0
194	0xbdc1f406	-0.09470372
195	0xbd9b1e12	-0.07574095
196	0x80000000	-0.0
197	0x3d713faf	0.058898624
198	0x00000000	0.0
199	0x3d8b68e8	0.06807119
200	0xbdabf5a0	-0.083964586
201	0x80000000	-0.0
202	0x3d9a32b9	0.07529206
203	0x80000000	-0.0
204	0x00000000	0.0
205	0xbdab275c	-0.083571166
206	0x80000000	-0.0
207	0xbde4b4b7	-0.11167281
208	0xbe015afa	-0.12632361
209	0xbdb039e7	-0.08604794
210	0x80000000	-0.0
211	0xbdac88e9	-0.08424551
212	0x00000000	0.0
213	0x3d7cb369	0.061694536
214	0x80000000	-0.0
215	0xbd83fe0a	-0.064449385
216	0x3d8c0fa4	0.06838921
217	0x00000000	0.0
218	0x00000000	0.0
219	0x00000000	0.0
220	0xbd91c6d0	-0.071179986
221	0x3d8f319d	0.06991885
222	0xbd97454c	-0.07386264
223	0xbdb1e520	-0.0868628
224	0xbddf19fd	-0.10893629
225	0x00000000	0.0
226	0x3d6df56e	0.058095388
227	0xbd904bc9	-0.07045705
228	0xbdb46973	-0.08809175
229	0x00000000	0.0
230	0x80000000	-0.0
231	0x3d64a710	0.055823386
232	0x00000000	0.0
233	0xbd61a2bd	-0.05508684
234	0x80000000	-0.0
235	0x3db4367a	0.08799453
236	0x3d617b27	0.055049088
237	0x00000000	0.0
238	0x00000000	0.0
239	0x80000000	-0.0
240	0x80000000	-0.0
241	0x3daae502	0.08344461
242	0xbddae44a	-0.10688074
243	0x00000000	0.0
244	0x3d964ae1	0.07338501
245	0xbd7f2739	-0.062293265
246	0x3db4dfa6	0.0883172
247	0x80000000	-0.0
248	0xbd7a79c3	-0.061151277
249	0xbdcb719a	-0.09933777
250	0x3da34a2f	0.07973134
251	0xbd73345a	-0.0593761
252	0x3dc83047	0.09774833
253	0x80000000	-0.0
254	0x00000000	0.0
255	0xbd53c8b3	-0.051705074

conv2.bias f4 [16]
0	0x3d0b15bc	0.033956274
1	0xbd130a42	-0.035898454
2	0x3bc12bb2	0.0058951015
3	0xbc78da29	-0.015188732
4	0xbb4e0e7c	-0.0031441739
5	0x3c1e3d11	0.009658114
6	0x3cba1761	0.022716226
7	0xbda92e3b	-0.08260771
8	0xbd57111c	-0.05250655
9	0x3a6e68cb	0.0009094595
10	0xbd02338b	-0.031787436
11	0x3e0a2368	0.13490069
12	0x3d2e9074	0.04261823
13	0x3d88d081	0.06680394
14	0xbd84b75d	-0.06480286
15	0x3d80d3ef	0.06290423

conv2.weight f4 [16, 6, 5, 5]
0	0xbd7ec70f	-0.062201556
1	0xbcf58df6	-0.029974919
2	0x3dad7726	0.084699914
3	0x3d7a20be	0.06106638
4	0x3ceee1cd	0.029160405
5	0x3da05973	0.07829561
6	0xbd3daf01	-0.046309475
7	0x3d9fe30a	0.07806976
8	0x3d811761	0.06303287
9	0x3d904bcd	0.07045708
10	0xbd65e4ad	-0.056126285
11	0x3da131a9	0.078708
12	0x00000000	0.0
13	0x00000000	0.0
14	0x3d2fef26	0.04295268
15	0x00000000	0.0
16	0x00000000	0.0
17	0xbda9437e	-0.08264826
18	0xbd7ee25f	-0.062227603
19	0x80000000	-0.0
20	0x3d08e0dd	0.03341757
21	0x3d26c52e	0.04071539
22	0x80000000	-0.0
23	0xbddb43fb	-0.107063256
24	0x80000000	-0.0
25	0x3dab635b	0.0836856
26	0x3e0b2237	0.1358727
27	0x00000000	0.0
28	0x3d1d189e	0.038353555
29	0x3dc76fa9	0.09738094
30	0x3dd3ce8c	0.1034213
31	0x3e1498ff	0.14511488
32	0x3dcb47c1	0.09925795
33	0x3e1ce089	0.15320028
34	0x3e1ad523	0.15120368
35	0x3df365f2	0.11884679
36	0x3e0fde2a	0.14049593
37	0x3de278f8	0.11058229
38	0x3df47051	0.11935485
39	0x3e09f357	0.13471733
40	0x80000000	-0.0
41	0x3dfb97ab	0.12284788
42	0x00000000	0.0
43	0x3dacc5c9	0.08436162
44	0x3d4b4fca	0.04963664
45	0x3d18ea16	0.037332617
46	0x3d4fd17f	0.0507369
47	0x3dddca7e	0.10829638
48	0x00000000	0.0
49	0x3da3372a	0.07969506
50	0x3dbd543e	0.092445835
51	0x3dd5b35f	0.10434603
52	0x3de86946	0.11348204
53	0x3d2f0788	0.04273179
54	0x3df74d5f	0.12075304
55	0xbcf248ed	-0.02957579
56	0x3de53759	0.11192197
57	0x00000000	0.0
58	0x80000000	-0.0
59	0x3db4609f	0.088074915
60	0x3dd60bec	0.10451493
61	0x80000000	-0.0
62	0x3d4e4495	0.050358374
63	0x00000000	0.0
64	0x3cfdefcf	0.030998139
65	0x3d1f8575	0.038945634
66	0x00000000	0.0
67	0x3d896ad2	0.067098275
68	0x00000000	0.0
69	0x3d571b44	0.052516237
70	0x00000000	0.0
71	0x3da437d5	0.080184616
72	0x3deac37b	0.11463066
73	0x3cf24aa8	0.029576614
74	0x80000000	-0.0
75	0xbd0721fc	-0.032991394
76	0x3d8addf9	0.06780619
77	0xbd3a20af	-0.045441326
78	0x3d314f12	0.043288298
79	0xbd918703	-0.071058296
80	0x3cf478ce	0.02984276
81	0x3d5b47eb	0.053535383
82	0x3d041595	0.032247145
83	0x00000000	0.0
84	0x3d1f124b	0.038835805
85	0xbd3930d6	-0.04521259
86	0x3d34e232	0.04416103
87	0xbd5abe2c	-0.05340402
88	0x80000000	-0.0
89	0xbda17e5b	-0.078854285
90	0x3d1158b0	0.03548497
91	0xbd34e90c	-0.044167563
92	0xbd15f3c1	-0.036609415
93	0x00000000	0.0
94	0x3d67a757	0.056556072
95	0x80000000	-0.0
96	0x80000000	-0.0
97	0xbd878560	-0.06617236
98	0xbd22e0dd	-0.039765228
99	0x80000000	-0.0
100	0x3df0f9b0	0.11766374
101	0x3dea7c17	0.114494495
102	0x3d99712f	0.07492291
103	0x3d32c7ae	0.04364746
104	0x3dd8eefd	0.105924584
105	0x3d17a2e5	0.037020583
106	0x3de7b772	0.11314286
107	0xbcecabd5	-0.02889053
108	0x3d8cff58	0.068846405
109	0x3d48cc4b	0.049022954
110	0x3d54093d	0.051766623
111	0x80000000	-0.0
112	0x3d33279c	0.043738946
113	0x3d913d19	0.070917316
114	0x3dd4ff33	0.10400238
115	0x80000000	-0.0
116	0x3d4768ac	0.048683807
117	0x3d6b488e	0.05744224
118	0x3dd8f017	0.105926685
119	0xbd0c425e	-0.03424298
120	0x00000000	0.0
121	0x3d82de81	0.063900955
122	0x3dc9f1de	0.09860586
123	0xbd1323c0	-0.035922766
124	0x3dbb3553	0.0914103
125	0x3d57c851	0.05268127
126	0x3d588b72	0.05286736
127	0x3d82552d	0.06363902
128	0x3d659e30	0.056059062
129	0x3dc1aa38	0.09456295
130	0xbd2536a0	-0.040335298
131	0x00000000	0.0
132	0x3d025e93	0.031828474
133	0x3d86acbd	0.06575916
134	0xbd2ca62c	-0.04215066
135	0xbd187512	-0.037221022
136	0x80000000	-0.0
137	0x3d00dd44	0.031461015
138	0x3da01909	0.07817275
139	0x3dca3167	0.09872704
140	0x3db27391	0.08713449
141	0x3da57d5a	0.080805495
142	0x00000000	0.0
143	0x3d31a872	0.043373533
144	0xbd19a7de	-0.037513606
145	0x3d99873e	0.074964985
146	0x3cf2c629	0.029635506
147	0x3de10dc5	0.109889545
148	0x00000000	0.0
149	0x3d6d391f	0.057915803
150	0x80000000	-0.0
151	0x3d6b5879	0.05745742
152	0x80000000	-0.0
153	0x80000000	-0.0
154	0x00000000	0.0
155	0xbd5fb860	-0.054619193
156	0x00000000	0.0
157	0x80000000	-0.0
158	0x00000000	0.0
159	0xbd0cc142	-0.034363993
160	0x3da885c7	0.08228641
161	0x3d8f1eea	0.06988318
162	0x80000000	-0.0
163	0x80000000	-0.0
164	0x80000000	-0.0
165	0x80000000	-0.0
166	0xbd7970be	-0.060898535
167	0x00000000	0.0
168	0x80000000	-0.0
169	0x3d18dc7b	0.03731964
170	0xbcf99f85	-0.030471573
171	0xbd619f45	-0.055083532
172	0x00000000	0.0
173	0x3d7c578e	0.061606936
174	0x3d228e69	0.039686594
175	0xbd90476f	-0.07044875
176	0xbd8fdcba	-0.07024522
177	0xbd4cc54c	-0.049992844
178	0x80000000	-0.0
179	0x3da86c88	0.08223826
180	0x3d7741b5	0.060365397
181	0x3d7ec93e	0.06220364
182	0x3cefafd3	0.029258644
183	0x00000000	0.0
184	0x00000000	0.0
185	0xbd317b5d	-0.04333054
186	0x80000000	-0.0
187	0xbd0f6ced	-0.03501599
188	0x3d0ba44a	0.034092225
189	0xbda090d1	-0.078401215
190	0x00000000	0.0
191	0x3d1a6a2f	0.03769892
192	0xbd9d2415	-0.07672898
193	0x00000000	0.0
194	0x00000000	0.0
195	0x00000000	0.0
196	0x80000000	-0.0
197	0x80000000	-0.0
198	0x3d4f247a	0.050571896
199	0xbda036c2	-0.07822944
200	0x3da34f37	0.079740934
201	0x00000000	0.0
202	0x3d229062	0.039688475
203	0x3d5e3852	0.05425293
204	0x3d89b77c	0.0672445
205	0x3d6b6237	0.05746671
206	0x3d4eaff6	0.05046078
207	0x80000000	-0.0
208	0x80000000	-0.0
209	0x3d5ec312	0.054385252
210	0x3d5f0782	0.05445052
211	0xbd9c0f5a	-0.076201156
212	0xbd07ce4b	-0.03315572
213	0x00000000	0.0
214	0x80000000	-0.0
215	0xbd0e82f0	-0.03479284
216	0x00000000	0.0
217	0x80000000	-0.0
218	0xbd9213bc	-0.0713267
219	0xbcf0e29d	-0.029404933
220	0x3d7d7f91	0.061889235
221	0x00000000	0.0
222	0x00000000	0.0
223	0xbd0ee3bd	-0.034885157
224	0x00000000	0.0
225	0x00000000	0.0
226	0xbd77a49a	-0.06045971
227	0x80000000	-0.0
228	0x3d88adf6	0.066738054
229	0x80000000	-0.0
230	0x00000000	0.0
231	0x3d86dd7b	0.06585213
232	0x00000000	0.0
233	0x80000000	-0.0
234	0x80000000	-0.0
235	0xbd8e0260	-0.06934047
236	0x3da076bd	0.078351475
237	0xbd839e95	-0.064267315
238	0x3d1297ed	0.03578942
239	0x80000000	-0.0
240	0x00000000	0.0
241	0x80000000	-0.0
242	0x80000000	-0.0
243	0x80000000	-0.0
244	0x00000000	0.0
245	0x80000000	-0.0
246	0x3d19ab34	0.037516788
247	0x00000000	0.0
248	0x00000000	0.0
249	0x80000000	-0.0
250	0xbd62cce9	-0.0553712
251	0x3d6ac9e9	0.057321463
252	0x80000000	-0.0
253	0x3d9aa70c	0.07551393
254	0x3d26eaee	0.04075139
255	0x00000000	0.0

fc1.bias f4 [120]
0	0xbcff582b	-0.031169971
1	0x3c3fdcf2	0.011710392
2	0x3bc3453c	0.005959181
3	0x3c836976	0.016041499
4	0xbb145fe1	-0.0022640156
5	0x3d033510	0.032033026
6	0xbc900ff3	-0.01758573
7	0xbd5adb0e	-0.053431563
8	0xbbbf3eff	-0.005836367
9	0x3bf25e47	0.0073964926
10	0x3a826578	0.0009948453
11	0xbc14b5b0	-0.009076521
12	0x3d2343c7	0.03985956
13	0x3ba6da3f	0.005091935
14	0xbcde69bb	-0.027150026
15	0xbd3b3c60	-0.045711875
16	0x3cd2683e	0.025684472
17	0xb903391f	-0.00012514413
18	0xbd2db5c9	-0.042409692
19	0xbd3621ae	-0.044465713
20	0xbc192cd3	-0.009349066
21	0xbcbe4d96	-0.023230355
22	0xbd35a9e8	-0.04435149
23	0xbd1231ce	-0.03569203
24	0xbd2a9d41	-0.041653875
25	0x3d2fd6d5	0.04292949
26	0xbcd9d322	-0.026589934
27	0xbd280720	-0.04102242
28	0xbcfdcdd0	-0.030981928
29	0x3bafef0a	0.005369072
30	0x3d840495	0.064461865
31	0x3d9997af	0.074996345
32	0x3cc8b99b	0.024502566
33	0x3d0ff9c0	0.03515029
34	0xbd093757	-0.03350004
35	0xbd438715	-0.047736246
36	0x3b8fe84d	0.004391706
37	0xbc0c58be	-0.00856608
38	0x3c1c7beb	0.009551029
39	0x3d4e1397	0.05031165
40	0xbc8e2dda	-0.017355848
41	0x3c82d6ae	0.015971508
42	0x3d192ff9	0.037399266
43	0xbcce1ce7	-0.025160266
44	0x3ceaae50	0.028647572
45	0x3ca0ecae	0.019644108
46	0x3cf9dc7f	0.030500649
47	0xbd079667	-0.03310242
48	0xbca388eb	-0.019962749
49	0xbc89e56c	-0.01683303
50	0xbc8aa5f8	-0.016924843
51	0xbca863ed	-0.02055546
52	0xbcf55b7f	-0.029950855
53	0xbd45080e	-0.048103385
54	0x3c85ceb9	0.016333925
55	0xbcf97e6c	-0.03045579
56	0xbdd9a977	-0.10628026
57	0x3ce7943b	0.028268924
58	0xbd48189b	-0.04885159
59	0xbce2580d	-0.027629877
60	0x3b89bb15	0.00420321
61	0xbd3019c9	-0.04299334
62	0x3cee040b	0.029054662
63	0xbcbeacf3	-0.023275828
64	0x3ceaca12	0.028660808
65	0x3c8b3a95	0.016995708
66	0xbbd6c072	-0.006553703
67	0xbce851e0	-0.028359354
68	0x3d2f6846	0.042824052
69	0x3d36dd03	0.044644367
70	0x3d109e0a	0.035306968
71	0x3c73e1e8	0.014885403
72	0xbd38aed9	-0.045088623
73	0x3b1ebdbc	0.0024221977
74	0xbc96ecca	-0.018423457
75	0xbc467923	-0.012113842
76	0x3d72c19c	0.05926667
77	0x3cc35e49	0.02384867
78	0xbd783de8	-0.060605913
79	0x3c40754a	0.011746714
80	0xbc4f1d52	-0.012641268
81	0x3b876095	0.0041313865
82	0xbc628d21	-0.013827593
83	0x3d6eb5ce	0.05827885
84	0xbaa24a53	-0.001238177
85	0xbce03144	-0.027367242
86	0x3d86b3a7	0.06577235
87	0x3bbe79bb	0.0058128512
88	0xbd51c89a	-0.0512167
89	0x3d065d79	0.032803986
90	0xbc9f935c	-0.019479446
91	0xbcc4df63	-0.0240323
92	0x3d45fd46	0.048337243
93	0x3d577a8f	0.052607115
94	0xbcd96b3d	-0.026540393
95	0xbcb964aa	-0.022631008
96	0x3cff06f1	0.03113124
97	0xbcfafd22	-0.030638281
98	0x3be6e51f	0.0070463563
99	0xbd6a44ed	-0.05719464
100	0xbd15abb5	-0.036540706
101	0xbd1dd9af	-0.038537677
102	0xbb6b6f03	-0.0035924322
103	0x3d688cb2	0.056774803
104	0x3ccbe3af	0.024888841
105	0xbd42a69c	-0.047522172
106	0xbc8f4a3e	-0.017491456
107	0xbc0f5c58	-0.008750044
108	0x3d11de27	0.03561225
109	0x3cf723f8	0.030168518
110	0x3b09c35d	0.0021020987
111	0x3d320955	0.04346593
112	0x3ae6e022	0.0017614404
113	0x3d16ed95	0.03684767
114	0x3c9ef823	0.01940543
115	0x3cca12b1	0.024667116
116	0xbc1662d6	-0.009178838
117	0xbd3ea38f	-0.0465427
118	0x3c572286	0.01313079
119	0xbcd68842	-0.02618802

fc1.weight f4 [120, 400]
0	0x3d132120	0.035920262
1	0xbc94b428	-0.018152311
2	0xbd1b45e6	-0.037908457
3	0x80000000	-0.0
4	0xbcdf8c7d	-0.02728867
5	0xbd3464ec	-0.04404156
6	0xbcf15c8a	-0.029463071
7	0x00000000	0.0
8	0xbd176b40	-0.036967516
9	0xbd3ec9bc	-0.046579108
10	0x3ca8ba56	0.020596664
11	0xbd4b7ee1	-0.049681548
12	0xbd237bc2	-0.039912947
13	0x3ce88a40	0.028386235
14	0x3cd0cb0e	0.025487449
15	0x3cda139f	0.026620684
16	0x00000000	0.0
17	0x80000000	-0.0
18	0xbcb57f16	-0.022155326
19	0x00000000	0.0
20	0x80000000	-0.0
21	0xbca0dbd5	-0.019636074
22	0xbd73ca88	-0.05951932
23	0x3c93e2c0	0.018052459
24	0xbd2115c6	-0.039327405
25	0x3cbcf786	0.023067247
26	0x00000000	0.0
27	0xbc9b1888	-0.018932596
28	0xbcac1515	-0.021006146
29	0xbd09cc2e	-0.033641987
30	0x00000000	0.0
31	0xbccdc5d0	-0.025118738
32	0x3ccf8277	0.025330765
33	0xbc947607	-0.018122686
34	0x00000000	0.0
35	0x3d2d3098	0.04228267
36	0xbd202cd5	-0.039105255
37	0x00000000	0.0
38	0x3d0ef344	0.034899965
39	0x3d495253	0.049150776
40	0x00000000	0.0
41	0xbd4812b0	-0.048845947
42	0xbd38a2fa	-0.0450773
43	0xbd3620fc	-0.04446505
44	0xbcbd8933	-0.02313671
45	0x3cd1ea91	0.025624545
46	0x80000000	-0.0
47	0x3d1b4b49	0.037913594
48	0xbd3fbf5d	-0.046813358
49	0xbd265588	-0.040608913
50	0x00000000	0.0
51	0x80000000	-0.0
52	0x3d481f9b	0.048858266
53	0x80000000	-0.0
54	0x3c9c67d7	0.019092483
55	0x3d3c2866	0.045936964
56	0xbd379bcc	-0.044826314
57	0x3d2b364f	0.04179984
58	0x3cc58498	0.024111077
59	0x3cf433d9	0.02980988
60	0x80000000	-0.0
61	0x80000000	-0.0
62	0xbd0c32ce	-0.03422814
63	0x3cbc61ae	0.022995796
64	0x3d248f6b	0.040175837
65	0x00000000	0.0
66	0x3cfe73c0	0.031061053
67	0xbd420e83	-0.04737712
68	0x3d00ebfb	0.03147505
69	0xbcc08254	-0.023499645
70	0xbd3fef69	-0.04685918
71	0x80000000	-0.0
72	0x3cea8e43	0.028632289
73	0x3d33695a	0.043801643
74	0xbcaf2fac	-0.021385036
75	0x00000000	0.0
76	0x3d03be46	0.03216388
77	0x00000000	0.0
78	0x3d0e9eea	0.03481952
79	0x3d4411b5	0.04786845
80	0x3cdc7ce4	0.026915021
81	0x00000000	0.0
82	0x80000000	-0.0
83	0x3ce9f10f	0.028557329
84	0x3cc45599	0.023966597
85	0x00000000	0.0
86	0x3d3db014	0.0463105
87	0x00000000	0.0
88	0xbd0ecf1b	-0.03486548
89	0x00000000	0.0
90	0xbd32ce80	-0.043653965
91	0xbd1367b0	-0.035987556
92	0x80000000	-0.0
93	0x80000000	-0.0
94	0x00000000	0.0
95	0x3d3787d2	0.044807263
96	0x3cb6369a	0.022242833
97	0xbccf2303	-0.02528525
98	0xbcc42d19	-0.023947285
99	0x3d3ba016	0.045806967
100	0x00000000	0.0
101	0x80000000	-0.0
102	0x80000000	-0.0
103	0xbcdd040f	-0.026979474
104	0x80000000	-0.0
105	0xbd269f09	-0.04067901
106	0x00000000	0.0
107	0xbcf1fa59	-0.02953832
108	0x3cb0199c	0.021496587
109	0x80000000	-0.0
110	0x00000000	0.0
111	0xbd221827	-0.039573815
112	0x3d0b4c66	0.034008406
113	0x3cc371f0	0.02385804
114	0xbc984eb5	-0.018592218
115	0x80000000	-0.0
116	0x80000000	-0.0
117	0x80000000	-0.0
118	0xbcd9fe87	-0.026610626
119	0xbc953ff9	-0.018218981
120	0x3d626493	0.055271696
121	0x00000000	0.0
122	0x3d0278e3	0.031853568
123	0x3d1ede60	0.038786292
124	0x3d28a11d	0.041169275
125	0x00000000	0.0
126	0x80000000	-0.0
127	0x3d14575b	0.03621612
128	0x3d2f0d6c	0.04273741
129	0xbd4bf8ab	-0.049797695
130	0x3d285561	0.04109705
131	0x80000000	-0.0
132	0x00000000	0.0
133	0x3d1d0ca8	0.038342148
134	0xbd4353ae	-0.047687225
135	0x80000000	-0.0
136	0x3cdbf979	0.026852356
137	0xbd20c497	-0.039249983
138	0xbd1ae049	-0.03781155
139	0xbd3c7c47	-0.046016958
140	0x80000000	-0.0
141	0xbd12855c	-0.035771713
142	0x3cace93a	0.021107305
143	0xbcbf5097	-0.023353858
144	0x00000000	0.0
145	0xbcf28225	-0.029603073
146	0x3cc00908	0.023441806
147	0xbcea5a37	-0.02860747
148	0x00000000	0.0
149	0xbcf8a1be	-0.030350562
150	0x80000000	-0.0
151	0xbca444b7	-0.020052297
152	0xbcd20029	-0.025634842
153	0x3c9e4873	0.019321656
154	0xbcc6abfb	-0.024251929
155	0x80000000	-0.0
156	0xbd3ebaf0	-0.046564996
157	0x00000000	0.0
158	0x00000000	0.0
159	0x00000000	0.0
160	0x80000000	-0.0
161	0xbca3a578	-0.019976363
162	0x3cc8254e	0.02443185
163	0x00000000	0.0
164	0x00000000	0.0
165	0x80000000	-0.0
166	0xbd675d33	-0.056485366
167	0x80000000	-0.0
168	0xbd20cb8b	-0.039256614
169	0xbce80590	-0.028322965
170	0x3cfc6d4f	0.030813841
171	0x3ca5a9cf	0.020222573
172	0xbd2df48a	-0.04246954
173	0xbc9c5210	-0.0190821
174	0x80000000	-0.0
175	0x80000000	-0.0
176	0x3d328b63	0.04358996
177	0x80000000	-0.0
178	0x3cb630ef	0.02224013
179	0xbcad27b7	-0.021137102
180	0xbcb646f1	-0.022250624
181	0x3ce20963	0.027592367
182	0xbd335bd6	-0.043788753
183	0x3caed7b7	0.021343095
184	0x3d569d19	0.052395914
185	0x00000000	0.0
186	0x3cb783ce	0.022401717
187	0x3d0938a5	0.033501286
188	0x00000000	0.0
189	0xbcec3508	-0.028833881
190	0x3ca4ed2a	0.02013262
191	0x3d25d149	0.040482793
192	0x3d15356a	0.036427893
193	0x3caa3cfc	0.020781033
194	0x00000000	0.0
195	0x00000000	0.0
196	0x3cd5b616	0.026087802
197	0x3cfee205	0.031113634
198	0x3d48332a	0.04887692
199	0x3d6a9fbe	0.05728125
200	0x3d4203b6	0.04736682
201	0x3d2d6a44	0.04233767
202	0xbceaaa08	-0.02864553
203	0xbd51a9ce	-0.05118733
204	0x00000000	0.0
205	0x3cd58e44	0.026068814
206	0xbcc0af5b	-0.023521116
207	0xbd4cb34e	-0.049975686
208	0xbd52ad24	-0.05143465
209	0xbd008777	-0.03137919
210	0x00000000	0.0
211	0xbd0182f4	-0.031619027
212	0x80000000	-0.0
213	0x80000000	-0.0
214	0xbd257b39	-0.040400717
215	0xbd34687d	-0.04404496
216	0x80000000	-0.0
217	0x3cba0084	0.022705324
218	0xbd32ab9d	-0.043620694
219	0x00000000	0.0
220	0xbd115bd9	-0.035487983
221	0x80000000	-0.0
222	0x00000000	0.0
223	0x00000000	0.0
224	0x3cdfb064	0.02730579
225	0x3d363095	0.044479925
226	0x80000000	-0.0
227	0x00000000	0.0
228	0x00000000	0.0
229	0x3d75d8ea	0.06002132
230	0x80000000	-0.0
231	0x3d37c83d	0.044868696
232	0x80000000	-0.0
233	0xbcd2acf5	-0.025717238
234	0x00000000	0.0
235	0xbca2a560	-0.019854248
236	0x3ca6d663	0.0203659
237	0xbd114b09	-0.03547195
238	0x80000000	-0.0
239	0x3d208cbe	0.039196722
240	0x3d206b56	0.039164864
241	0x00000000	0.0
242	0x00000000	0.0
243	0x00000000	0.0
244	0x3d2ee13f	0.04269528
245	0x00000000	0.0
246	0x80000000	-0.0
247	0x00000000	0.0
248	0x80000000	-0.0
249	0x3cade7ae	0.021228638
250	0xbce1c3bc	-0.027559154
251	0x00000000	0.0
252	0xbd471d33	-0.04861183
253	0x00000000	0.0
254	0x3d056fab	0.032577198
255	0xbd1297c3	-0.035789263

fc2.bias f4 [84]
0	0xbb38f7a8	-0.0028223787
1	0x3dbb9f83	0.09161284
2	0xbd94b2c1	-0.07260657
3	0xbd76dec1	-0.06027103
4	0xbcde4cc6	-0.027136218
5	0x3d86de67	0.06585389
6	0xbda582a0	-0.08081555
7	0xbd4c1c64	-0.049831763
8	0x3db93366	0.090430066
9	0x3d17150d	0.03688531
10	0x3d17425f	0.03692853
11	0xbc9a2360	-0.018815696
12	0xbdbd22b5	-0.092351355
13	0x3d849b41	0.06474925
14	0xbddd4555	-0.1080424
15	0xbdc31cce	-0.095269784
16	0x3e20a1da	0.15686741
17	0xbdb0c71a	-0.086317256
18	0xbdc747f6	-0.09730522
19	0x3d1ba6f8	0.03800103
20	0xbb337def	-0.0027388295
21	0xbd7c2bd2	-0.061565228
22	0x3dfd87cd	0.123794176
23	0x3db2cf26	0.08730917
24	0x3d28a0cc	0.041168973
25	0x3d27b116	0.040940367
26	0xbc8ebd7f	-0.017424343
27	0xbd9774ce	-0.073953256
28	0x3d0eb8ae	0.034844093
29	0xbd420c93	-0.047375273
30	0x3cf11fcd	0.02943411
31	0x3d8df008	0.06930548
32	0xbdb5202f	-0.08844029
33	0xbc1e5f90	-0.009666339
34	0xbd59ae47	-0.05314472
35	0xba67eea0	-0.00088475086
36	0x3cecc191	0.028900893
37	0xbd853018	-0.06503314
38	0x3cf4afd6	0.029869001
39	0xbdc6aef3	-0.09701338
40	0x3d025a09	0.031824145
41	0x3d923d59	0.071406074
42	0xbc248e7a	-0.010043735
43	0x3e3dc5d7	0.18532501
44	0xbd5a383c	-0.053276286
45	0x3da995b6	0.08280508
46	0xbd990d74	-0.07473269
47	0xbe1ec712	-0.15505627
48	0xbdc3f68e	-0.09568511
49	0x3e037902	0.1283913
50	0xbe09f5ed	-0.1347272
51	0x3e2783a1	0.16358806
52	0xbdbf10d3	-0.09329381
53	0xbd3bc5a9	-0.0458428
54	0xbcd96301	-0.026536467
55	0x3df0e03f	0.117615215
56	0x3d443c0c	0.047908828
57	0x3d3d238e	0.046176486
58	0xbd43c47e	-0.04779481
59	0xbdb3afb9	-0.08773751
60	0x3dc8cfce	0.098052606
61	0x3d07b08c	0.033127353
62	0x3d56d9ae	0.05245369
63	0xbd75b30c	-0.059985206
64	0x3d5c3dd8	0.053769916
65	0x3d919e71	0.071102984
66	0x3dd616c3	0.1045356
67	0xbd259f13	-0.040434908
68	0xbda9cd5a	-0.08291121
69	0x3cd7e784	0.026355512
70	0x3e0571e5	0.13031729
71	0x3d7b8a19	0.061410997
72	0x3daabe19	0.083370395
73	0xbd89a201	-0.06720353
74	0xbcdbb096	-0.026817601
75	0x3c9c0a4c	0.019047879
76	0xbd89dc83	-0.067315124
77	0xbc6d848c	-0.014496934
78	0xbc9629e9	-0.018330531
79	0xbdb2c48b	-0.08728894
80	0xbcbacc60	-0.022802532
81	0xbb17ea48	-0.0023180414
82	0x3cc690a7	0.024238897
83	0x3ddea97f	0.108721726

fc2.weight f4 [84, 120]
0	0x3d5eb721	0.054373864
1	0x80000000	-0.0
2	0x80000000	-0.0
3	0xbd883057	-0.06649845
4	0x3d615153	0.055009197
5	0x80000000	-0.0
6	0x80000000	-0.0
7	0xbd9f1674	-0.077679545
8	0x80000000	-0.0
9	0xbd8bb4ea	-0.06821616
10	0x3d348234	0.044069484
11	0x3d87218c	0.065981954
12	0x80000000	-0.0
13	0x3d67438c	0.056460902
14	0x80000000	-0.0
15	0x3d63f281	0.05565119
16	0x00000000	0.0
17	0xbd9d518d	-0.0768157
18	0x00000000	0.0
19	0xbd54278b	-0.051795524
20	0x80000000	-0.0
21	0x00000000	0.0
22	0xbda0e625	-0.078563966
23	0xbd940d58	-0.072291076
24	0x80000000	-0.0
25	0xbdb50774	-0.08839312
26	0xbd6d4b4c	-0.057933137
27	0x3db9eb57	0.09078091
28	0x00000000	0.0
29	0x00000000	0.0
30	0x80000000	-0.0
31	0x3d6ad779	0.057334397
32	0x3d3d6c47	0.04624584
33	0x00000000	0.0
34	0xbd4a4f21	-0.04939187
35	0x3dafd251	0.085850365
36	0x3d55b455	0.05217393
37	0x3d835673	0.06412973
38	0x3da3e66e	0.08002935
39	0xbd867d8e	-0.065669164
40	0x3da1572a	0.07877953
41	0xbd2842f3	-0.041079473
42	0x3d3f5fac	0.0467221
43	0x3d0c5dd1	0.034269158
44	0x00000000	0.0
45	0x80000000	-0.0
46	0x00000000	0.0
47	0x00000000	0.0
48	0xbd782f4e	-0.06059199
49	0x3d9fc139	0.07800526
50	0x00000000	0.0
51	0x3d83663c	0.06415984
52	0x00000000	0.0
53	0x3db4c922	0.088274255
54	0x3dac9d62	0.08428456
55	0xbdad1715	-0.08451668
56	0x3d979e15	0.07403199
57	0x3d89179d	0.06693957
58	0x3d5b3a6f	0.053522523
59	0xbd73fb7c	-0.059566006
60	0x3d5e1ebb	0.054228526
61	0x3da96e25	0.082729615
62	0xbd611ef9	-0.05496118
63	0x3d837032	0.06417884
64	0x3daae7c6	0.083449885
65	0x00000000	0.0
66	0x3dae51de	0.08511709
67	0xbdb526f6	-0.08845322
68	0x3d8eef02	0.06979181
69	0x3d7d13e7	0.06178656
70	0xbd4fed59	-0.05076346
71	0x3d0985e7	0.033574965
72	0x3d8b7e26	0.0681117
73	0x00000000	0.0
74	0xbdb3cb33	-0.087789916
75	0x3d093d30	0.03350562
76	0x00000000	0.0
77	0xbda00e90	-0.078152776
78	0xbd44ed7f	-0.048078056
79	0x00000000	0.0
80	0xbd476db6	-0.048688613
81	0x3dac92b0	0.08426416
82	0x3d6865e4	0.056737795
83	0x00000000	0.0
84	0xbdb25708	-0.08708006
85	0xbdaed6a8	-0.08537036
86	0xbd8cd637	-0.06876796
87	0x3d6e5c7f	0.05819368
88	0x80000000	-0.0
89	0x3d74ed2b	0.059796494
90	0x3d1537bb	0.0364301
91	0x80000000	-0.0
92	0x3d899a36	0.067188665
93	0x3d3007f9	0.042976353
94	0xbdaa038a	-0.08301456
95	0x3daeee3d	0.08541534
96	0x3d661823	0.056175362
97	0x00000000	0.0
98	0x00000000	0.0
99	0xbda3297c	-0.07966897
100	0xbdb240cb	-0.087037645
101	0x00000000	0.0
102	0x00000000	0.0
103	0x3d92dceb	0.07171043
104	0x3d478fdf	0.04872119
105	0x00000000	0.0
106	0xbd4bfa8b	-0.049799483
107	0x00000000	0.0
108	0x3da4b456	0.08042209
109	0x3d4b6cf0	0.049664438
110	0xbdb14bb7	-0.086570196
111	0xbd98adf5	-0.07455055
112	0x3db04752	0.08607353
113	0x3d9bb887	0.07603555
114	0x00000000	0.0
115	0x00000000	0.0
116	0x00000000	0.0
117	0xbd4826a5	-0.04886498
118	0x3dbab923	0.09117343
119	0x3d53563f	0.051595923
120	0x00000000	0.0
121	0x00000000	0.0
122	0x80000000	-0.0
123	0x3d965aea	0.07341559
124	0x3d8f5f91	0.0700065
125	0x3d448bf7	0.047985043
126	0x3d953195	0.07284848
127	0xbd4684eb	-0.048466604
128	0x3db2f2f5	0.087377466
129	0xbd8b851b	-0.06812497
130	0x00000000	0.0
131	0x3d06b74c	0.03288965
132	0x00000000	0.0
133	0xbd131bc0	-0.035915136
134	0xbd0cc736	-0.03436967
135	0xbd48fb99	-0.049068067
136	0xbda0956c	-0.07841
137	0x3d8dea65	0.06929473
138	0xbdb28545	-0.087168254
139	0xbd2b11b7	-0.04176494
140	0x00000000	0.0
141	0x3d5fcca1	0.05463851
142	0xbd62f139	-0.05540583
143	0x3dba68b9	0.091020055
144	0xbda75474	-0.08170405
145	0x3d86b098	0.06576651
146	0xbd42417e	-0.04742574
147	0x3d175e1b	0.03695498
148	0x3d4ef2f8	0.05052468
149	0x80000000	-0.0
150	0x3d9f34f9	0.077737756
151	0x3d67d6d5	0.056601364
152	0x3d10c3a4	0.035342827
153	0xbd2d1b03	-0.04226209
154	0xbd2efc86	-0.042721294
155	0x80000000	-0.0
156	0x3d36c71f	0.04462349
157	0x80000000	-0.0
158	0x00000000	0.0
159	0xbdd517ea	-0.10404952
160	0x3d2e5d09	0.042569194
161	0xbd880333	-0.06641235
162	0xbd5f42b1	-0.05450696
163	0xbdb31322	-0.08743884
164	0xbd99f416	-0.07517259
165	0x00000000	0.0
166	0xbd1a2352	-0.03763134
167	0x3daa7606	0.083232924
168	0x00000000	0.0
169	0x80000000	-0.0
170	0xbd0f9fb5	-0.035064418
171	0xbd0ec5e6	-0.0348567
172	0x3db22c72	0.086998835
173	0xbd9f6830	-0.07783544
174	0x00000000	0.0
175	0x80000000	-0.0
176	0xbd2511de	-0.040300243
177	0x80000000	-0.0
178	0xbda84f70	-0.082182765
179	0xbd462e19	-0.048383806
180	0xbd934935	-0.071916975
181	0x80000000	-0.0
182	0x00000000	0.0
183	0x3d8a5553	0.067545556
184	0xbd8ba2ce	-0.06818162
185	0xbd36bdc0	-0.044614553
186	0x3d8158db	0.06315776
187	0x3d75ee3a	0.060041644
188	0xbd81e223	-0.0634196
189	0x3d8251e1	0.063632734
190	0x3d2e4724	0.042548314
191	0xbd1f616c	-0.038911268
192	0xbd5892bd	-0.052874316
193	0x3d0ed750	0.034873307
194	0xbd2be0a7	-0.041962292
195	0x3d8cf04f	0.06881773
196	0x3db143ee	0.08655535
197	0xbdb21333	-0.08695068
198	0xbd61a96c	-0.055093214
199	0xbd288d05	-0.04115011
200	0x3dc08a30	0.09401357
201	0x3dabf61a	0.083965495
202	0x3d0b802d	0.034057785
203	0x3db8b540	0.09018946
204	0x3d5b86da	0.0535954
205	0x00000000	0.0
206	0x3da6c1cd	0.08142433
207	0x00000000	0.0
208	0xbd484c52	-0.04890091
209	0xbd4cdc6e	-0.050014906
210	0x3d877353	0.06613793
211	0xbd17b3bf	-0.037036654
212	0x3da41a1e	0.08012794
213	0xbd447d3b	-0.04797099
214	0x3d8a3bc4	0.06749681
215	0xbd124bba	-0.03571675
216	0x80000000	-0.0
217	0xbd3e13f9	-0.046405766
218	0x00000000	0.0
219	0x00000000	0.0
220	0x3dbd2e14	0.09237304
221	0x80000000	-0.0
222	0xbd18d15a	-0.03730903
223	0x3d8d1bae	0.06890045
224	0x3d8092a9	0.06277973
225	0xbd918fe6	-0.071075246
226	0x3db29b9b	0.08721086
227	0x3d87e151	0.066347726
228	0xbd0f25d6	-0.034948193
229	0x00000000	0.0
230	0x3d936b33	0.07198181
231	0x80000000	-0.0
232	0x3d206d77	0.039166894
233	0x80000000	-0.0
234	0xbd8fa88e	-0.07014571
235	0xbd36a06e	-0.04458659
236	0x00000000	0.0
237	0xbdadcdbd	-0.08486507
238	0xbd0d3e9b	-0.034483533
239	0x3db6f108	0.08932692
240	0xbd8c9c51	-0.068657525
241	0xbd1b8c01	-0.037975315
242	0x3d420c80	0.047375202
243	0x80000000	-0.0
244	0xbd729335	-0.05922242
245	0x3da38fa7	0.07986384
246	0x00000000	0.0
247	0x80000000	-0.0
248	0x3d0b0c59	0.033947323
249	0xbd4f48e6	-0.05060663
250	0xbd94910e	-0.072542295
251	0xbdaa9252	-0.0832869
252	0x80000000	-0.0
253	0xbd8f0b74	-0.069846064
254	0x3d496cfe	0.04917621
255	0x80000000	-0.0

fc3.bias f4 [23]
0	0x3da18623	0.07886913
1	0xbb8aa73e	-0.0042313626
2	0x3da4ffcb	0.08056601
3	0x3ecbe5da	0.398238
4	0xbe13c1a3	-0.14429335
5	0xbc3891ed	-0.01126526
6	0x3dbf6322	0.0934508
7	0xbeb79da0	-0.35862446
8	0x3de29422	0.1106341
9	0x3e1dc952	0.15408829
10	0x3e328107	0.17432033
11	0xba198064	-0.00058556185
12	0xbddfd0e3	-0.10928514
13	0x3e28d520	0.1648755
14	0xbdd81b72	-0.1055211
15	0xbe54d086	-0.2078267
16	0x3dbdb349	0.092627116
17	0x3d85f870	0.06541526
18	0xbea9cc20	-0.33163548
19	0xbe7516d7	-0.23934494
20	0x3ba2ab38	0.0049642585
21	0x3e73f93b	0.23825543
22	0x3dc0d3fc	0.09415433

fc3.weight f4 [23, 84]
0	0x00000000	0.0
1	0xbd2e3ba6	-0.042537354
2	0x3d5f69b9	0.054544184
3	0x3d6fb92d	0.058526207
4	0x00000000	0.0
5	0x3d643e68	0.055723578
6	0x3d6e6201	0.058198933
7	0x3ddc4a14	0.10756317
8	0xbd6f9a10	-0.058496535
9	0x3dbf0fe2	0.09329201
10	0x00000000	0.0
11	0xbd547b29	-0.051875267
12	0xbdb0984e	-0.086228
13	0x3d25c837	0.040474143
14	0xbd5b026f	-0.053469118
15	0x80000000	-0.0
16	0x80000000	-0.0
17	0x00000000	0.0
18	0x80000000	-0.0
19	0x00000000	0.0
20	0xbd616458	-0.055027336
21	0x3db770f6	0.089570925
22	0x00000000	0.0
23	0x00000000	0.0
24	0x3e00476a	0.12527242
25	0xbd765c22	-0.06014646
26	0x3deb6c8d	0.11495314
27	0x80000000	-0.0
28	0x00000000	0.0
29	0xbd7eea8c	-0.0622354
30	0xbd9a2f05	-0.075284995
31	0x00000000	0.0
32	0x3d6b2ff0	0.057418764
33	0xbdc0ddf9	-0.09417338
34	0xbd96e853	-0.07368531
35	0x00000000	0.0
36	0xbdcff8a7	-0.101548485
37	0xbd2bcd96	-0.04194411
38	0x3dc3727e	0.09543322
39	0xbdd3ea13	-0.103473805
40	0xbd969507	-0.073526435
41	0x80000000	-0.0
42	0xbdd9d63d	-0.10636566
43	0x3da00bdd	0.07814763
44	0xbda048ac	-0.07826361
45	0x3d3b715f	0.045762416
46	0x3d66f624	0.05638708
47	0xbdbab754	-0.09116998
48	0xbdd1171d	-0.10209487
49	0x3da2589d	0.07927058
50	0xbdb8062e	-0.08985554
51	0x3d3db12d	0.046311546
52	0x3dca2e14	0.0987207
53	0x3d3e36e2	0.04643906
54	0x80000000	-0.0
55	0x80000000	-0.0
56	0x3dacc74a	0.08436449
57	0xbd84b9b2	-0.06480731
58	0x80000000	-0.0
59	0x80000000	-0.0
60	0xbdcf69a1	-0.10127569
61	0xbdc02649	-0.09382302
62	0x3ddd5019	0.10806293
63	0xbd8063ca	-0.06269033
64	0xbdd58d32	-0.104273215
65	0x3d676ed9	0.056502197
66	0x3dd7b88c	0.105332464
67	0xbd5882d5	-0.052859146
68	0x80000000	-0.0
69	0x3d73e862	0.05954779
70	0x80000000	-0.0
71	0x00000000	0.0
72	0x3daa5292	0.0831653
73	0xbd62f863	-0.05541266
74	0x00000000	0.0
75	0x3d60a5a8	0.054845482
76	0x80000000	-0.0
77	0x3d48b600	0.049001694
78	0xbd350399	-0.044192884
79	0xbd5ef5ec	-0.054433748
80	0x3d57c07a	0.052673794
81	0x3d88f325	0.06687001
82	0x3d9ddc4f	0.07708036
83	0x3da5c6b6	0.08094542
84	0x80000000	-0.0
85	0xbd78dffb	-0.06076048
86	0x3d690691	0.056891028
87	0x00000000	0.0
88	0x3dca7576	0.09885685
89	0x80000000	-0.0
90	0x80000000	-0.0
91	0xbd2ad83c	-0.041710123
92	0x3d44f629	0.04808632
93	0x00000000	0.0
94	0x3dc00339	0.09375615
95	0x00000000	0.0
96	0x3d7e226f	0.062044557
97	0x3d48dae5	0.04903688
98	0x80000000	-0.0
99	0x3dbe4035	0.0928959
100	0x3da0e22c	0.07855639
101	0xbd50ac57	-0.050945606
102	0x00000000	0.0
103	0xbdf7bf08	-0.12096983
104	0xbd7cbea4	-0.061705247
105	0xbd87a628	-0.06623489
106	0x00000000	0.0
107	0x3d38091c	0.044930562
108	0x3db4c80e	0.0882722
109	0x3db5e623	0.08881786
110	0x80000000	-0.0
111	0x3daae8bb	0.08345171
112	0x80000000	-0.0
113	0xbdb33ac3	-0.08751442
114	0x80000000	-0.0
115	0x3dc9c0d1	0.0985123
116	0x80000000	-0.0
117	0x3db31be3	0.08745553
118	0x3d5ed4cf	0.05440217
119	0x00000000	0.0
120	0xbdbf8c36	-0.09352915
121	0x80000000	-0.0
122	0x00000000	0.0
123	0x00000000	0.0
124	0xbdc87598	-0.09788054
125	0xbd8e2520	-0.06940675
126	0xbd465d2e	-0.048428707
127	0x80000000	-0.0
128	0x00000000	0.0
129	0xbd96f921	-0.07371736
130	0xbda319dd	-0.079639174
131	0xbdb0f84b	-0.08641108
132	0xbdba2a46	-0.09090094
133	0xbd438e14	-0.047742918
134	0x3d5180b9	0.05114815
135	0x3d9ed378	0.07755178
136	0xbddd09fd	-0.10792921
137	0x3d9d83ee	0.07691179
138	0x3db020dc	0.086000174
139	0x3d33b09b	0.043869596
140	0x3dbfae1d	0.09359381
141	0x3dbc9456	0.0920798
142	0x3d40b0e2	0.04704369
143	0xbda75f52	-0.08172478
144	0xbd9f27a7	-0.07771235
145	0x00000000	0.0
146	0x3dad4fa1	0.08462454
147	0xbd456b3a	-0.048197962
148	0xbda13128	-0.07870704
149	0x3d9598fb	0.07304569
150	0x80000000	-0.0
151	0x3d3bde68	0.0458664
152	0x3da8ff47	0.08251815
153	0x3dbe1995	0.09282223
154	0xbd99c542	-0.07508327
155	0x80000000	-0.0
156	0x3da339d2	0.07970013
157	0x3de4aa19	0.11165256
158	0xbd46c7a9	-0.048530255
159	0x3d5de56f	0.054173883
160	0x00000000	0.0
161	0x3de43366	0.11142616
162	0xbdb0c4b9	-0.08631272
163	0x00000000	0.0
164	0x80000000	-0.0
165	0x3deb0687	0.11475854
166	0x3d47e3e5	0.04880132
167	0xbdbf94de	-0.09354566
168	0xbdaca005	-0.08428959
169	0xbe05100a	-0.129944
170	0x3db019f5	0.08598701
171	0x80000000	-0.0
172	0xbdd2024f	-0.102543466
173	0x3d9a3088	0.07528788
174	0x80000000	-0.0
175	0x3de05682	0.10954
176	0x3d3a29dc	0.045450076
177	0x00000000	0.0
178	0xbdbb51da	-0.09146471
179	0xbd20b12c	-0.039231464
180	0xbdac37c8	-0.08409077
181	0xbd6aa0ef	-0.057282384
182	0x80000000	-0.0
183	0x00000000	0.0
184	0xbe158e4c	-0.14605063
185	0xbdc8b1ac	-0.09799513
186	0x80000000	-0.0
187	0x3d8386e6	0.06422214
188	0x3d2f2c27	0.042766716
189	0x3d3cf496	0.046131693
190	0x3e1b17d1	0.15145804
191	0xbe208f6d	-0.15679713
192	0x3e1f0d62	0.15532449
193	0x3d85df5b	0.06536742
194	0x00000000	0.0
195	0x80000000	-0.0
196	0xbd772360	-0.06033647
197	0xbd414c74	-0.047192052
198	0x3e48af4e	0.19598123
199	0x3dc69285	0.09695915
200	0x00000000	0.0
201	0xbdf056d7	-0.117353134
202	0x80000000	-0.0
203	0xbdbb21b8	-0.09137291
204	0x3d3fbb49	0.04680947
205	0xbdd7cc95	-0.10537068
206	0x3d84b1a0	0.06479192
207	0xbdb377ad	-0.08763061
208	0xbde5f53e	-0.11228417
209	0x3dc2604b	0.09491023
210	0x00000000	0.0
211	0x3d5a6f42	0.05332876
212	0x00000000	0.0
213	0x00000000	0.0
214	0x80000000	-0.0
215	0x00000000	0.0
216	0x00000000	0.0
217	0xbde155c9	-0.1100269
218	0xbdc11aec	-0.09428963
219	0xbd5a71f6	-0.053331338
220	0x3dd4c424	0.10388973
221	0xbd908235	-0.07056085
222	0x3d5e18c8	0.054222852
223	0x80000000	-0.0
224	0x00000000	0.0
225	0x3dcb09f9	0.099140115
226	0xbd624c0d	-0.05524831
227	0x3dbd5a68	0.09245759
228	0x00000000	0.0
229	0x00000000	0.0
230	0x00000000	0.0
231	0x3dd4598c	0.10368642
232	0xbe45fee4	-0.19335514
233	0x00000000	0.0
234	0xbdb1ec76	-0.086876795
235	0xbd687ae2	-0.056757815
236	0x00000000	0.0
237	0x00000000	0.0
238	0xbdc85dfd	-0.09783552
239	0x80000000	-0.0
240	0x80000000	-0.0
241	0x00000000	0.0
242	0x00000000	0.0
243	0xbd2f9ae0	-0.04287231
244	0xbd70009b	-0.058594327
245	0x3d4e597b	0.050378304
246	0x80000000	-0.0
247	0x3d818644	0.06324437
248	0x3dc18d9d	0.09450839
249	0xbd5ed39a	-0.054401018
250	0x00000000	0.0
251	0x00000000	0.0
252	0x80000000	-0.0
253	0x3dad7cfd	0.08471105
254	0xbe0ab515	-0.1354564
255	0x00000000	0.0
